bvpsGT_w10_s1_T2_30.npy (npy, 92288 bytes, 1 tensors)

array f8 [1, 11520]
00000000: 0ad7 a370 3d8a 67c0 14ae 47e1 7a5c 67c0
00000010: 6666 6666 66de 66c0 9a99 9999 9911 66c0
00000020: d7a3 703d 0af7 64c0 7b14 ae47 e17a 63c0
00000030: 52b8 1e85 eb71 61c0 1f85 eb51 b83e 5dc0
00000040: 6666 6666 66a6 55c0 8fc2 f528 5c0f 48c0
00000050: 295c 8fc2 f528 08c0 0000 0000 00e0 4640
00000060: cdcc cccc ccac 5740 85eb 51b8 1e9d 6140
00000070: 9a99 9999 99e1 6640 ae47 e17a 14a6 6b40
00000080: 295c 8fc2 f500 7040 5c8f c2f5 2800 7240
00000090: e17a 14ae 47c5 7340 3d0a d7a3 7035 7540
000000a0: cdcc cccc cc34 7640 1f85 eb51 b8b6 7640
000000b0: 3333 3333 33c7 7640 9a99 9999 9989 7640
000000c0: 48e1 7a14 ae27 7640 48e1 7a14 aebf 7540
000000d0: 1f85 eb51 b856 7540 d7a3 703d 0adb 7440
000000e0: 6666 6666 662e 7440 713d 0ad7 a338 7340
000000f0: 3d0a d7a3 70f1 7140 14ae 47e1 7a60 7040
00000100: e17a 14ae 4729 6d40 713d 0ad7 a328 6940
00000110: b81e 85eb 51b0 6440 ec51 b81e 853b 5f40
00000120: 8fc2 f528 5caf 5340 ec51 b81e 856b 3b40
00000130: 6666 6666 66e6 3ac0 3333 3333 3333 54c0
00000140: 295c 8fc2 f558 60c0 9a99 9999 99c9 65c0
00000150: 3d0a d7a3 704d 6ac0 7b14 ae47 e1f2 6dc0
00000160: c3f5 285c 8f6e 70c0 0ad7 a370 3d96 71c0
00000170: ec51 b81e 8577 72c0 c3f5 285c 8f12 73c0
00000180: f628 5c8f c265 73c0 5c8f c2f5 2874 73c0
00000190: 48e1 7a14 ae43 73c0 6666 6666 66da 72c0
000001a0: c3f5 285c 8f3a 72c0 0000 0000 0060 71c0
000001b0: 85eb 51b8 1e45 70c0 713d 0ad7 a3d0 6dc0
000001c0: c3f5 285c 8fa2 6ac0 295c 8fc2 f528 67c0
000001d0: 295c 8fc2 f5a0 63c0 1f85 eb51 b84e 60c0
000001e0: 6666 6666 66d6 5ac0 e17a 14ae 4731 56c0
000001f0: 85eb 51b8 1eb5 52c0 85eb 51b8 1e45 50c0
00000200: 713d 0ad7 a370 4dc0 a470 3d0a d703 4cc0
00000210: ae47 e17a 146e 4cc0 52b8 1e85 ebf1 4ec0
00000220: 5c8f c2f5 28cc 51c0 3333 3333 33f3 54c0
00000230: cdcc cccc cc5c 58c0 e17a 14ae 4741 5bc0
00000240: ec51 b81e 85cb 5cc0 713d 0ad7 a350 5cc0
00000250: 295c 8fc2 f578 59c0 f628 5c8f c245 54c0
00000260: 0ad7 a370 3d0a 4ac0 5c8f c2f5 28dc 30c0
00000270: ec51 b81e 856b 3640 0ad7 a370 3dea 4f40
00000280: 6666 6666 6686 5a40 0ad7 a370 3d9a 6240
00000290: a470 3d0a d713 6840 713d 0ad7 a3d8 6d40
000002a0: ec51 b81e 8503 7240 d7a3 703d 0a43 7540
000002b0: e17a 14ae 4771 7840 b81e 85eb 5128 7b40
000002c0: 48e1 7a14 aeef 7c40 6666 6666 6666 7d40
000002d0: 0ad7 a370 3d6a 7c40 c3f5 285c 8f2a 7a40
000002e0: 295c 8fc2 f518 7740 713d 0ad7 a3c0 7340
000002f0: 0000 0000 0098 7040 f628 5c8f c2c5 6b40
00000300: a470 3d0a d763 6740 295c 8fc2 f5e8 6340
00000310: c3f5 285c 8f22 6140 9a99 9999 99c9 5d40
00000320: 6666 6666 6606 5a40 8fc2 f528 5c7f 5640
00000330: 5c8f c2f5 287c 5240 0ad7 a370 3d4a 4a40
00000340: a470 3d0a d7e3 3640 0ad7 a370 3dca 30c0
00000350: 295c 8fc2 f588 50c0 3333 3333 33a3 5ec0
00000360: 0000 0000 00b0 66c0 48e1 7a14 aeaf 6dc0
00000370: 295c 8fc2 f5d4 71c0 9a99 9999 9915 74c0
00000380: d7a3 703d 0a87 75c0 9a99 9999 993d 76c0
00000390: 5c8f c2f5 2868 76c0 d7a3 703d 0a3b 76c0
000003a0: 8fc2 f528 5cdf 75c0 cdcc cccc cc6c 75c0
000003b0: a470 3d0a d7ef 74c0 7b14 ae47 e172 74c0
000003c0: 85eb 51b8 1e05 74c0 295c 8fc2 f5b4 73c0
000003d0: e17a 14ae 4785 73c0 85eb 51b8 1e65 73c0
000003e0: 295c 8fc2 f530 73c0 c3f5 285c 8fbe 72c0
000003f0: 7b14 ae47 e1ee 71c0 0ad7 a370 3dba 70c0
00000400: cdcc cccc cc64 6ec0 f628 5c8f c2f5 6ac0
00000410: 1f85 eb51 b876 67c0 6666 6666 661e 64c0
00000420: b81e 85eb 51f8 60c0 85eb 51b8 1ec5 5bc0
00000430: ec51 b81e 853b 55c0 295c 8fc2 f5c8 4bc0
00000440: a470 3d0a d7a3 36c0 d7a3 703d 0a57 2840
00000450: c3f5 285c 8fc2 4640 d7a3 703d 0a67 5240
00000460: 8fc2 f528 5c7f 5740 85eb 51b8 1eb5 5a40
00000470: 7b14 ae47 e1ca 5c40 d7a3 703d 0af7 5e40
00000480: 85eb 51b8 1e35 6140 5c8f c2f5 28f4 6340
00000490: 3d0a d7a3 70c5 6740 7b14 ae47 e162 6c40
000004a0: cdcc cccc cca8 7040 3333 3333 3303 7340
000004b0: 295c 8fc2 f500 7540 e17a 14ae 4771 7640
000004c0: f628 5c8f c231 7740 cdcc cccc cc30 7740
000004d0: 7b14 ae47 e16e 7640 ec51 b81e 8503 7540
000004e0: 295c 8fc2 f51c 7340 295c 8fc2 f5f4 7040
000004f0: 3333 3333 337b 6d40 3d0a d7a3 7015 6940
00000500: d7a3 703d 0a97 6440 c3f5 285c 8f72 5f40
00000510: 8fc2 f528 5caf 5440 52b8 1e85 ebb1 4240
00000520: 3d0a d7a3 703d 15c0 a470 3d0a d7a3 43c0
00000530: 3d0a d7a3 703d 4ec0 e17a 14ae 4741 51c0
00000540: a470 3d0a d743 51c0 d7a3 703d 0a87 50c0
00000550: b81e 85eb 51f8 4fc0 7b14 ae47 e17a 4fc0
00000560: 3d0a d7a3 707d 4ec0 a470 3d0a d7c3 4bc0
00000570: 0000 0000 0000 47c0 0000 0000 0000 41c0
00000580: 14ae 47e1 7a14 36c0 cdcc cccc cccc 27c0
00000590: 9a99 9999 9999 09c0 c3f5 285c 8fc2 1640
000005a0: 0ad7 a370 3d8a 3040 ec51 b81e 85eb 3d40
000005b0: 5c8f c2f5 287c 4640 d7a3 703d 0a17 4e40
000005c0: 48e1 7a14 ae97 5240 713d 0ad7 a3e0 5540
000005d0: f628 5c8f c225 5940 ec51 b81e 85bb 5c40
000005e0: 713d 0ad7 a368 6040 3333 3333 33a3 6240
000005f0: 3333 3333 33d3 6440 0ad7 a370 3da2 6640
00000600: 52b8 1e85 ebb9 6740 3333 3333 33e3 6740
00000610: 713d 0ad7 a318 6740 52b8 1e85 eb89 6540
00000620: 85eb 51b8 1e8d 6340 8fc2 f528 5c87 6140
00000630: 0ad7 a370 3d9a 5f40 7b14 ae47 e11a 5d40
00000640: 1f85 eb51 b87e 5b40 cdcc cccc cc3c 5a40
00000650: 0ad7 a370 3d7a 5840 cdcc cccc cc4c 5540
00000660: 14ae 47e1 7a14 5040 85eb 51b8 1e85 4140
00000670: 0ad7 a370 3d0a c7bf b81e 85eb 5178 42c0
00000680: 713d 0ad7 a390 51c0 3333 3333 3303 58c0
00000690: b81e 85eb 5108 5cc0 f628 5c8f c295 5dc0
000006a0: d7a3 703d 0a07 5dc0 b81e 85eb 51f8 5ac0
000006b0: 7b14 ae47 e12a 58c0 8fc2 f528 5c6f 55c0
000006c0: e17a 14ae 4791 53c0 5c8f c2f5 282c 53c0
000006d0: 6666 6666 6686 54c0 e17a 14ae 4771 57c0
000006e0: 0ad7 a370 3d5a 5bc0 cdcc cccc cc7c 5fc0
000006f0: e17a 14ae 4791 61c0 295c 8fc2 f5e8 62c0
00000700: 85eb 51b8 1ead 63c0 a470 3d0a d7db 63c0
00000710: 3d0a d7a3 707d 63c0 3333 3333 339b 62c0
00000720: 3d0a d7a3 7045 61c0 3333 3333 3333 5fc0
00000730: 9a99 9999 9989 5bc0 713d 0ad7 a3f0 57c0
00000740: a470 3d0a d7b3 54c0 0000 0000 00f0 51c0
00000750: ec51 b81e 852b 4fc0 e17a 14ae 4701 4bc0
00000760: c3f5 285c 8f22 47c0 3d0a d7a3 707d 43c0
00000770: c3f5 285c 8f22 40c0 7b14 ae47 e13a 3ac0
00000780: 0000 0000 00c0 34c0 5c8f c2f5 28dc 2ec0
00000790: c3f5 285c 8fc2 23c0 0ad7 a370 3d0a 0fc0
000007a0: 3333 3333 3333 0340 cdcc cccc cc4c 2140
000007b0: 8fc2 f528 5c0f 2d40 c3f5 285c 8f02 3440
000007c0: c3f5 285c 8f42 3940 0000 0000 0080 3e40
000007d0: d7a3 703d 0ad7 4140 14ae 47e1 7a34 4440
000007e0: 7b14 ae47 e1fa 4540 48e1 7a14 aec7 4640
000007f0: 0000 0000 0060 4640 7b14 ae47 e1ba 4440
-188.32 -186.89 -182.95 -176.55 -167.72 -155.84 -139.56 -116.98
-86.6 -48.12 -3.02 45.75 94.7 140.91 183.05 221.19
256.06 288.01 316.33 339.34 355.3 363.42 364.45 360.6
354.48 347.98 341.42 333.69 322.9 307.54 287.09 262.03
233.29 201.27 165.51 124.93 78.74 27.42 -26.9 -80.8
-130.78 -174.3 -210.42 -239.59 -262.91 -281.39 -295.47 -305.16
-310.36 -311.26 -308.23 -301.65 -291.66 -278.0 -260.32 -238.52
-213.08 -185.28 -157.03 -130.46 -107.35 -88.77 -74.83 -65.08
-58.88 -56.03 -56.86 -61.89 -71.19 -83.8 -97.45 -109.02
-115.18 -113.26 -101.89 -81.09 -52.08 -16.86 22.42 63.83
106.1 148.82 192.62 238.77 288.22 340.19 391.08 434.52
462.98 470.4 454.64 418.66 369.56 316.04 265.5 222.18
187.12 159.28 137.08 119.15 104.1 89.99 73.94 52.58
22.89 -16.79 -66.14 -122.55 -181.5 -237.49 -285.31 -321.35
-344.44 -355.85 -358.51 -355.69 -349.96 -342.8 -334.99 -327.18
-320.32 -315.31 -312.33 -310.32 -307.06 -299.91 -286.93 -267.64
-243.15 -215.68 -187.71 -160.95 -135.76 -111.08 -84.93 -55.57
-22.64 12.17 45.52 73.61 93.99 106.83 115.17 123.86
137.66 159.63 190.17 227.09 266.55 304.2 336.06 359.08
371.11 371.05 358.93 336.22 305.81 271.31 235.85 200.67
164.72 125.79 82.74 37.39 -5.31 -39.28 -60.48 -69.02
-69.06 -66.11 -63.94 -62.96 -60.98 -55.53 -46.0 -34.0
-22.08 -11.9 -3.2 5.69 16.54 29.92 44.97 60.18
74.37 87.51 100.59 114.93 131.27 149.1 166.6 181.07
189.81 191.1 184.77 172.31 156.41 140.23 126.41 116.42
109.98 104.95 97.91 85.2 64.32 35.04 -0.18 -36.94
-70.26 -96.05 -112.13 -118.34 -116.11 -107.88 -96.67 -85.74
-78.27 -76.69 -82.1 -93.77 -109.41 -125.95 -140.54 -151.28
-157.41 -158.87 -155.92 -148.85 -138.17 -124.8 -110.15 -95.76
-82.81 -71.75 -62.34 -54.01 -46.27 -38.98 -32.27 -26.23
-20.75 -15.43 -9.88 -3.88 2.4 8.65 14.53 20.01
25.26 30.5 35.68 40.41 43.96 45.56 44.75 41.46
