bvpsGT_w10_s2_T1_20.npy (npy, 92288 bytes, 1 tensors)

array f8 [1, 11520]
00000000: 713d 0ad7 a370 2040 cdcc cccc cccc 3740
00000010: 3d0a d7a3 70bd 4140 0000 0000 0000 4640
00000020: 1f85 eb51 b81e 4940 9a99 9999 9979 4b40
00000030: d7a3 703d 0a57 4d40 9a99 9999 99d9 4e40
00000040: 85eb 51b8 1e05 5040 a470 3d0a d773 5040
00000050: 0ad7 a370 3dba 5040 e17a 14ae 47e1 5040
00000060: 295c 8fc2 f5f8 5040 a470 3d0a d713 5140
00000070: ae47 e17a 143e 5140 0ad7 a370 3d7a 5140
00000080: 1f85 eb51 b8be 5140 5c8f c2f5 28fc 5140
00000090: 6666 6666 6626 5240 a470 3d0a d733 5240
000000a0: cdcc cccc cc1c 5240 3d0a d7a3 70dd 5140
000000b0: cdcc cccc cc6c 5140 48e1 7a14 aec7 5040
000000c0: 3d0a d7a3 70dd 4f40 713d 0ad7 a3d0 4d40
000000d0: c3f5 285c 8f82 4b40 713d 0ad7 a310 4940
000000e0: ae47 e17a 148e 4640 cdcc cccc cc0c 4440
000000f0: 9a99 9999 9999 4140 7b14 ae47 e17a 3e40
00000100: 8fc2 f528 5c0f 3a40 0ad7 a370 3d0a 3640
00000110: ae47 e17a 146e 3240 52b8 1e85 eb51 2e40
00000120: 7b14 ae47 e1fa 2740 3333 3333 3333 2140
00000130: 3333 3333 3333 1340 f628 5c8f c2f5 e03f
00000140: d7a3 703d 0ad7 0fc0 ec51 b81e 85eb 20c0
00000150: 52b8 1e85 eb51 29c0 e17a 14ae 47a1 30c0
00000160: a470 3d0a d7a3 34c0 ec51 b81e 852b 39c0
00000170: 0ad7 a370 3d8a 3ec0 48e1 7a14 ae67 42c0
00000180: 3333 3333 33d3 45c0 85eb 51b8 1e45 49c0
00000190: 7b14 ae47 e17a 4cc0 f628 5c8f c255 4fc0
000001a0: 3333 3333 33f3 50c0 713d 0ad7 a330 52c0
000001b0: 9a99 9999 9989 53c0 f628 5c8f c225 55c0
000001c0: 52b8 1e85 eb21 57c0 ae47 e17a 147e 59c0
000001d0: cdcc cccc cc0c 5cc0 8fc2 f528 5c6f 5ec0
000001e0: cdcc cccc cc0c 60c0 a470 3d0a d73b 60c0
000001f0: 48e1 7a14 ae17 5fc0 48e1 7a14 aed7 5bc0
00000200: d7a3 703d 0af7 56c0 295c 8fc2 f508 51c0
00000210: 14ae 47e1 7a94 45c0 1f85 eb51 b89e 33c0
00000220: 7b14 ae47 e17a e43f 9a99 9999 99d9 3040
00000230: 295c 8fc2 f528 3d40 d7a3 703d 0a17 4340
00000240: 3333 3333 3353 4640 f628 5c8f c295 4840
00000250: 1f85 eb51 b81e 4a40 0000 0000 0020 4b40
00000260: 6666 6666 66c6 4b40 c3f5 285c 8f42 4c40
00000270: 3d0a d7a3 70bd 4c40 f628 5c8f c255 4d40
00000280: 7b14 ae47 e11a 4e40 5c8f c2f5 28fc 4e40
00000290: 85eb 51b8 1ee5 4f40 3d0a d7a3 705d 5040
000002a0: 9a99 9999 99b9 5040 7b14 ae47 e10a 5140
000002b0: 48e1 7a14 ae57 5140 e17a 14ae 47a1 5140
000002c0: 295c 8fc2 f5d8 5140 3333 3333 33e3 5140
000002d0: ae47 e17a 149e 5140 a470 3d0a d7f3 5040
000002e0: ec51 b81e 85cb 4f40 5c8f c2f5 281c 4d40
000002f0: 295c 8fc2 f528 4a40 1f85 eb51 b83e 4740
00000300: 52b8 1e85 eb91 4440 8fc2 f528 5c2f 4240
00000310: 48e1 7a14 ae07 4040 f628 5c8f c2f5 3b40
00000320: a470 3d0a d7e3 3740 3333 3333 33b3 3340
00000330: 3d0a d7a3 70bd 2e40 85eb 51b8 1e05 2640
00000340: 0ad7 a370 3d0a 1b40 295c 8fc2 f528 0640
00000350: 8fc2 f528 5c8f eabf 9a99 9999 9999 0fc0
00000360: 8fc2 f528 5c8f 1ac0 ae47 e17a 142e 22c0
00000370: cdcc cccc cc4c 27c0 9a99 9999 9999 2dc0
00000380: ae47 e17a 14ee 32c0 295c 8fc2 f528 38c0
00000390: 295c 8fc2 f528 3ec0 713d 0ad7 a330 42c0
000003a0: ae47 e17a 140e 45c0 1f85 eb51 b87e 47c0
000003b0: b81e 85eb 5198 49c0 d7a3 703d 0ab7 4bc0
000003c0: d7a3 703d 0a57 4ec0 ae47 e17a 14ee 50c0
000003d0: cdcc cccc cc2c 53c0 d7a3 703d 0ab7 55c0
000003e0: 14ae 47e1 7a24 58c0 7b14 ae47 e1ea 59c0
000003f0: 52b8 1e85 eb81 5ac0 48e1 7a14 ae87 59c0
00000400: 8fc2 f528 5cdf 56c0 5c8f c2f5 28bc 52c0
00000410: cdcc cccc cc2c 4bc0 f628 5c8f c215 40c0
00000420: a470 3d0a d7a3 25c0 295c 8fc2 f528 1f40
00000430: 295c 8fc2 f5a8 3640 48e1 7a14 aec7 4040
00000440: 713d 0ad7 a370 4440 1f85 eb51 b89e 4640
00000450: a470 3d0a d7a3 4740 0000 0000 00c0 4740
00000460: cdcc cccc cc2c 4740 85eb 51b8 1e25 4640
00000470: d7a3 703d 0af7 4440 5c8f c2f5 28fc 4340
00000480: a470 3d0a d783 4340 3d0a d7a3 70bd 4340
00000490: e17a 14ae 47a1 4440 b81e 85eb 51f8 4540
000004a0: 6666 6666 6666 4740 1f85 eb51 b89e 4840
000004b0: b81e 85eb 5178 4940 0ad7 a370 3dea 4940
000004c0: 295c 8fc2 f508 4a40 f628 5c8f c2d5 4940
000004d0: 5c8f c2f5 283c 4940 713d 0ad7 a310 4840
000004e0: cdcc cccc cc2c 4640 cdcc cccc cc8c 4340
000004f0: 48e1 7a14 ae67 4040 b81e 85eb 5138 3a40
00000500: 14ae 47e1 7a14 3440 e17a 14ae 47e1 2d40
00000510: b81e 85eb 51b8 2540 ec51 b81e 85eb 1d40
00000520: d7a3 703d 0ad7 1040 52b8 1e85 eb51 e03f
00000530: 3333 3333 3333 0fc0 ec51 b81e 85eb 21c0
00000540: 295c 8fc2 f5a8 2cc0 d7a3 703d 0a97 33c0
00000550: e17a 14ae 4761 38c0 14ae 47e1 7a94 3cc0
00000560: 3d0a d7a3 701d 40c0 6666 6666 66c6 41c0
00000570: 8fc2 f528 5c6f 43c0 cdcc cccc cc4c 45c0
00000580: b81e 85eb 5198 47c0 c3f5 285c 8f82 4ac0
00000590: 3333 3333 3313 4ec0 b81e 85eb 5108 51c0
000005a0: b81e 85eb 51f8 52c0 3d0a d7a3 706d 54c0
000005b0: e17a 14ae 47f1 54c0 85eb 51b8 1e25 54c0
000005c0: 6666 6666 66e6 51c0 3333 3333 33b3 4cc0
000005d0: 713d 0ad7 a3d0 43c0 3333 3333 3373 34c0
000005e0: 295c 8fc2 f528 00c0 0ad7 a370 3d0a 2c40
000005f0: 85eb 51b8 1ec5 3a40 e17a 14ae 4701 4240
00000600: 14ae 47e1 7af4 4440 48e1 7a14 ae67 4640
00000610: 6666 6666 6686 4640 6666 6666 6686 4540
00000620: f628 5c8f c2b5 4340 a470 3d0a d783 4140
00000630: 295c 8fc2 f5e8 3e40 7b14 ae47 e1fa 3b40
00000640: 0ad7 a370 3dca 3a40 5c8f c2f5 285c 3b40
00000650: 0ad7 a370 3d4a 3d40 f628 5c8f c2f5 3f40
00000660: ec51 b81e 856b 4140 ec51 b81e 85cb 4240
00000670: c3f5 285c 8f02 4440 52b8 1e85 ebf1 4440
00000680: 713d 0ad7 a370 4540 e17a 14ae 4741 4540
00000690: d7a3 703d 0a37 4440 48e1 7a14 ae47 4240
000006a0: 7b14 ae47 e13a 3f40 48e1 7a14 ae07 3940
000006b0: 3333 3333 33b3 3240 0000 0000 0080 2940
000006c0: 6666 6666 6666 1d40 6666 6666 6666 0240
000006d0: 8fc2 f528 5c8f 06c0 52b8 1e85 ebd1 20c0
000006e0: 48e1 7a14 ae47 2dc0 52b8 1e85 eb51 35c0
000006f0: 0000 0000 0000 3cc0 52b8 1e85 eb11 41c0
00000700: 48e1 7a14 aea7 43c0 9a99 9999 99b9 45c0
00000710: b81e 85eb 5178 47c0 c3f5 285c 8f42 49c0
00000720: ec51 b81e 858b 4bc0 f628 5c8f c2b5 4ec0
00000730: 713d 0ad7 a370 51c0 f628 5c8f c2e5 53c0
00000740: ec51 b81e 855b 56c0 0ad7 a370 3d4a 58c0
00000750: 1f85 eb51 b81e 59c0 6666 6666 6666 58c0
00000760: b81e 85eb 51f8 55c0 3333 3333 3303 52c0
00000770: a470 3d0a d703 4ac0 d7a3 703d 0a57 3ec0
00000780: 6666 6666 66e6 22c0 c3f5 285c 8fc2 2140
00000790: 0000 0000 00c0 3740 295c 8fc2 f588 4140
000007a0: 5c8f c2f5 289c 4540 48e1 7a14 ae67 4840
000007b0: d7a3 703d 0a37 4a40 713d 0ad7 a350 4b40
000007c0: ec51 b81e 85eb 4b40 5c8f c2f5 283c 4c40
000007d0: a470 3d0a d763 4c40 5c8f c2f5 287c 4c40
000007e0: 14ae 47e1 7a94 4c40 f628 5c8f c2b5 4c40
000007f0: ec51 b81e 85eb 4c40 0000 0000 0040 4d40
8.22 23.8 35.48 44.0 50.24 54.95 58.68 61.7
64.08 65.81 66.91 67.52 67.89 68.31 68.97 69.91
70.98 71.94 72.6 72.81 72.45 71.46 69.7 67.12
63.73 59.63 55.02 50.13 45.11 40.1 35.2 30.48
26.06 22.04 18.43 15.16 11.99 8.6 4.8 0.53
-3.98 -8.46 -12.66 -16.63 -20.64 -25.17 -30.54 -36.81
-43.65 -50.54 -56.96 -62.67 -67.8 -72.76 -78.15 -84.59
-92.53 -101.97 -112.2 -121.74 -128.4 -129.87 -124.37 -111.37
-91.86 -68.14 -43.16 -19.62 0.64 16.85 29.16 38.18
44.65 49.17 52.24 54.25 55.55 56.52 57.48 58.67
60.21 61.97 63.79 65.46 66.9 68.17 69.37 70.52
71.39 71.55 70.47 67.81 63.59 58.22 52.32 46.49
41.14 36.37 32.06 27.96 23.89 19.7 15.37 11.01
6.76 2.77 -0.83 -3.95 -6.64 -9.09 -11.65 -14.8
-18.93 -24.16 -30.16 -36.38 -42.11 -46.99 -51.19 -55.43
-60.68 -67.72 -76.7 -86.86 -96.57 -103.67 -106.03 -102.12
-91.49 -74.94 -54.35 -32.17 -10.82 7.79 22.66 33.56
40.88 45.24 47.28 47.5 46.35 44.29 41.93 39.97
39.03 39.48 41.26 43.94 46.8 49.24 50.94 51.83
52.07 51.67 50.47 48.13 44.35 39.1 32.81 26.22
20.08 14.94 10.86 7.48 4.21 0.51 -3.9 -8.96
-14.33 -19.59 -24.38 -28.58 -32.23 -35.55 -38.87 -42.6
-47.19 -53.02 -60.15 -68.13 -75.88 -81.71 -83.77 -80.58
-71.6 -57.4 -39.63 -20.45 -2.02 14.02 26.77 36.01
41.91 44.81 45.05 43.05 39.42 35.03 30.91 27.98
26.79 27.36 29.29 31.96 34.84 37.59 40.02 41.89
42.88 42.51 40.43 36.56 31.23 25.03 18.7 12.75
7.35 2.3 -2.82 -8.41 -14.64 -21.32 -28.0 -34.14
-39.31 -43.45 -46.94 -50.52 -55.09 -61.42 -69.76 -79.59
-89.43 -97.16 -100.48 -97.6 -87.88 -72.05 -52.03 -30.34
-9.45 8.88 23.75 35.07 43.22 48.81 52.43 54.63
55.84 56.47 56.78 56.97 57.16 57.42 57.84 58.5
