bvpsGT_w10_s5_T2_35.npy (npy, 92288 bytes, 1 tensors)

array f8 [1, 11520]
0	0xc032970a3d70a3d7	-18.59
1	0xc026e147ae147ae1	-11.44
2	0xc01170a3d70a3d71	-4.36
3	0x3ffeb851eb851eb8	1.92
4	0x401c47ae147ae148	7.07
5	0x4026147ae147ae14	11.04
6	0x402c000000000000	14.0
7	0x403023d70a3d70a4	16.14
8	0x40318f5c28f5c28f	17.56
9	0x403247ae147ae148	18.28
10	0x40326147ae147ae1	18.38
11	0x4032000000000000	18.0
12	0x40316147ae147ae1	17.38
13	0x4030c7ae147ae148	16.78
14	0x40305c28f5c28f5c	16.36
15	0x403028f5c28f5c29	16.16
16	0x403011eb851eb852	16.07
17	0x402fcccccccccccd	15.9
18	0x402eeb851eb851ec	15.46
19	0x402d5c28f5c28f5c	14.68
20	0x402b2e147ae147ae	13.59
21	0x40289eb851eb851f	12.31
22	0x40261eb851eb851f	11.06
23	0x4023eb851eb851ec	9.96
24	0x402219999999999a	9.05
25	0x40206b851eb851ec	8.21
26	0x401ceb851eb851ec	7.23
27	0x401751eb851eb852	5.83
28	0x400f333333333333	3.9
29	0x3ff6e147ae147ae1	1.43
30	0xbff599999999999a	-1.35
31	0xc010c28f5c28f5c3	-4.19
32	0xc01b99999999999a	-6.9
33	0xc022d1eb851eb852	-9.41
34	0xc027ae147ae147ae	-11.84
35	0xc02ca8f5c28f5c29	-14.33
36	0xc03111eb851eb852	-17.07
37	0xc034266666666666	-20.15
38	0xc03799999999999a	-23.6
39	0xc03b547ae147ae14	-27.33
40	0xc03f170a3d70a3d7	-31.09
41	0xc04135c28f5c28f6	-34.42
42	0xc042547ae147ae14	-36.66
43	0xc0428a3d70a3d70a	-37.08
44	0xc041933333333333	-35.15
45	0xc03ec51eb851eb85	-30.77
46	0xc038666666666666	-24.4
47	0xc030eb851eb851ec	-16.92
48	0xc02299999999999a	-9.3
49	0xc002b851eb851eb8	-2.34
50	0x400c8f5c28f5c28f	3.57
51	0x4020bd70a3d70a3d	8.37
52	0x402851eb851eb852	12.16
53	0x402e0a3d70a3d70a	15.02
54	0x4030f33333333333	16.95
55	0x4031ee147ae147ae	17.93
56	0x403207ae147ae148	18.03
57	0x4031800000000000	17.5
58	0x4030a8f5c28f5c29	16.66
59	0x402fa8f5c28f5c29	15.83
60	0x402e6b851eb851ec	15.21
61	0x402d8a3d70a3d70a	14.77
62	0x402cd1eb851eb852	14.41
63	0x402bf0a3d70a3d71	13.97
64	0x402ab33333333333	13.35
65	0x40291eb851eb851f	12.56
66	0x402751eb851eb852	11.66
67	0x4025947ae147ae14	10.79
68	0x4024051eb851eb85	10.01
69	0x4022a3d70a3d70a4	9.32
70	0x4021333333333333	8.6
71	0x401e7ae147ae147b	7.62
72	0x40188f5c28f5c28f	6.14
73	0x400fc28f5c28f5c3	3.97
74	0x3ff2147ae147ae14	1.13
75	0xc0015c28f5c28f5c	-2.17
76	0xc01651eb851eb852	-5.58
77	0xc021851eb851eb85	-8.76
78	0xc027051eb851eb85	-11.51
79	0xc02b9eb851eb851f	-13.81
80	0xc02fc28f5c28f5c3	-15.88
81	0xc032170a3d70a3d7	-18.09
82	0xc034cccccccccccd	-20.8
83	0xc0383ae147ae147b	-24.23
84	0xc03c59999999999a	-28.35
85	0xc0406ccccccccccd	-32.85
86	0xc0428e147ae147ae	-37.11
87	0xc04428f5c28f5c29	-40.32
88	0xc044d47ae147ae14	-41.66
89	0xc0444f5c28f5c28f	-40.62
90	0xc0428ccccccccccd	-37.1
91	0xc03f8f5c28f5c28f	-31.56
92	0xc038d70a3d70a3d7	-24.84
93	0xc031eb851eb851ec	-17.92
94	0xc02723d70a3d70a4	-11.57
95	0xc018d70a3d70a3d7	-6.21
96	0xbffee147ae147ae1	-1.93
97	0x3ff5eb851eb851ec	1.37
98	0x400e147ae147ae14	3.76
99	0x401528f5c28f5c29	5.29
100	0x4018000000000000	6.0
101	0x40180a3d70a3d70a	6.01
102	0x40163d70a3d70a3d	5.56
103	0x4013cccccccccccd	4.95
104	0x40118f5c28f5c28f	4.39
105	0x400f70a3d70a3d71	3.93
106	0x400b333333333333	3.4
107	0x4004666666666666	2.55
108	0x3ff3333333333333	1.2
109	0xbfe3d70a3d70a3d7	-0.62
110	0xc00570a3d70a3d71	-2.68
111	0xc0127ae147ae147b	-4.62
112	0xc01851eb851eb852	-6.08
113	0xc01ba3d70a3d70a4	-6.91
114	0xc01ccccccccccccd	-7.2
115	0xc01cf5c28f5c28f6	-7.24
116	0xc01dd70a3d70a3d7	-7.46
117	0xc0206147ae147ae1	-8.19
118	0xc0232e147ae147ae	-9.59
119	0xc0270a3d70a3d70a	-11.52
120	0xc02b570a3d70a3d7	-13.67
121	0xc02f333333333333	-15.6
122	0xc030fd70a3d70a3d	-16.99
123	0xc031c51eb851eb85	-17.77
124	0xc03223d70a3d70a4	-18.14
125	0xc0328ccccccccccd	-18.55
126	0xc033800000000000	-19.5
127	0xc035451eb851eb85	-21.27
128	0xc037bae147ae147b	-23.73
129	0xc03a19999999999a	-26.1
130	0xc03b30a3d70a3d71	-27.19
131	0xc039a3d70a3d70a4	-25.64
132	0xc03475c28f5c28f6	-20.46
133	0xc026c28f5c28f5c3	-11.38
134	0x3fef0a3d70a3d70a	0.97
135	0x402e570a3d70a3d7	15.17
136	0x403d5c28f5c28f5c	29.36
137	0x4044e7ae147ae148	41.81
138	0x40499eb851eb851f	51.24
139	0x404c91eb851eb852	57.14
140	0x404dd5c28f5c28f6	59.67
141	0x404dc00000000000	59.5
142	0x404cb851eb851eb8	57.44
143	0x404b08f5c28f5c29	54.07
144	0x4048cf5c28f5c28f	49.62
145	0x4045fae147ae147b	43.96
146	0x404268f5c28f5c29	36.82
147	0x403c0f5c28f5c28f	28.06
148	0x4031deb851eb851f	17.87
149	0x401b666666666666	6.85
150	0xc010eb851eb851ec	-4.23
151	0xc02d51eb851eb852	-14.66
152	0xc037f5c28f5c28f6	-23.96
153	0xc03fe3d70a3d70a4	-31.89
154	0xc0432ccccccccccd	-38.35
155	0xc0459851eb851eb8	-43.19
156	0xc04719999999999a	-46.2
157	0xc047a7ae147ae148	-47.31
158	0xc0475c28f5c28f5c	-46.72
159	0xc046800000000000	-45.0
160	0xc0458147ae147ae1	-43.01
161	0xc044ca3d70a3d70a	-41.58
162	0xc044a3d70a3d70a4	-41.28
163	0xc045228f5c28f5c3	-42.27
164	0xc0463851eb851eb8	-44.44
165	0xc047cb851eb851ec	-47.59
166	0xc049c7ae147ae148	-51.56
167	0xc04c19999999999a	-56.2
168	0xc04e9c28f5c28f5c	-61.22
169	0xc0507e147ae147ae	-65.97
170	0xc0516147ae147ae1	-69.52
171	0xc051b5c28f5c28f6	-70.84
172	0xc0514eb851eb851f	-69.23
173	0xc0502b851eb851ec	-64.68
174	0xc04cf5c28f5c28f6	-57.92
175	0xc049147ae147ae14	-50.16
176	0xc04559999999999a	-42.7
177	0xc042333333333333	-36.4
178	0xc03f8ccccccccccd	-31.55
179	0xc03bdc28f5c28f5c	-27.86
180	0xc038d1eb851eb852	-24.82
181	0xc036028f5c28f5c3	-22.01
182	0xc033333333333333	-19.2
183	0xc0306e147ae147ae	-16.43
184	0xc02b9eb851eb851f	-13.81
185	0xc026eb851eb851ec	-11.46
186	0xc0231eb851eb851f	-9.56
187	0xc021428f5c28f5c3	-8.63
188	0xc022f0a3d70a3d71	-9.47
189	0xc02a2e147ae147ae	-13.09
190	0xc03435c28f5c28f6	-20.21
191	0xc03ed70a3d70a3d7	-30.84
192	0xc0462147ae147ae1	-44.26
193	0xc04daa3d70a3d70a	-59.33
194	0xc052c51eb851eb85	-75.08
195	0xc056cae147ae147b	-91.17
196	0xc05af3d70a3d70a4	-107.81
197	0xc05f551eb851eb85	-125.33
198	0xc061f147ae147ae1	-143.54
199	0xc0642f0a3d70a3d7	-161.47
200	0xc0662f0a3d70a3d7	-177.47
201	0xc067b8f5c28f5c29	-189.78
202	0xc0689fae147ae148	-196.99
203	0xc068c6b851eb851f	-198.21
204	0xc0681a3d70a3d70a	-192.82
205	0xc0667f0a3d70a3d7	-179.97
206	0xc063d1999999999a	-158.55
207	0xc05fe147ae147ae1	-127.52
208	0xc055b0a3d70a3d71	-86.76
209	0xc042cf5c28f5c28f	-37.62
210	0x4030fae147ae147b	16.98
211	0x40524b851eb851ec	73.18
212	0x405fd147ae147ae1	127.27
213	0x40660eb851eb851f	176.46
214	0x406b6947ae147ae1	219.29
215	0x406fe3851eb851ec	255.11
216	0x4071b80000000000	283.5
217	0x4072f9c28f5c28f6	303.61
218	0x4073a5eb851eb852	314.37
219	0x4073b0cccccccccd	315.05
220	0x40732028f5c28f5c	306.01
221	0x40720fd70a3d70a4	288.99
222	0x4070aca3d70a3d71	266.79
223	0x406e4c28f5c28f5c	242.38
224	0x406b40a3d70a3d71	218.02
225	0x40685a3d70a3d70a	194.82
226	0x40659e147ae147ae	172.94
227	0x40630570a3d70a3d	152.17
228	0x406090a3d70a3d71	132.52
229	0x405c9851eb851eb8	114.38
230	0x405899999999999a	98.4
231	0x40553ccccccccccd	84.95
232	0x4052766666666666	73.85
233	0x405017ae147ae148	64.37
234	0x404bc00000000000	55.5
235	0x404739999999999a	46.45
236	0x40427eb851eb851f	36.99
237	0x403b6e147ae147ae	27.43
238	0x403263d70a3d70a4	18.39
239	0x4024a3d70a3d70a4	10.32
240	0x4009333333333333	3.15
241	0xc00f0a3d70a3d70a	-3.88
242	0xc027c28f5c28f5c3	-11.88
243	0xc035ca3d70a3d70a	-21.79
244	0xc040f33333333333	-33.9
245	0xc047c8f5c28f5c29	-47.57
246	0xc04ebae147ae147b	-61.46
247	0xc052870a3d70a3d7	-74.11
248	0xc0551eb851eb851f	-84.48
249	0xc05711eb851eb852	-92.28
250	0xc058747ae147ae14	-97.82
251	0xc05963d70a3d70a4	-101.56
252	0xc059ef5c28f5c28f	-103.74
253	0xc05a128f5c28f5c3	-104.29
254	0xc059bf5c28f5c28f	-102.99
255	0xc058f7ae147ae148	-99.87
