bvpsGT_w10_s5_T1_35.npy (npy, 92288 bytes, 1 tensors)

array f8 [1, 11520]
10.14 9.53 9.02 8.71 8.58 8.6 8.64 8.6
8.4 8.05 7.66 7.43 7.51 7.89 8.37 8.57
8.18 6.99 5.09 2.68 0.09 -2.46 -4.85 -7.05
-9.14 -11.25 -13.62 -16.49 -20.01 -24.06 -28.16 -31.5
-33.25 -32.79 -29.97 -25.19 -19.2 -12.88 -6.95 -1.82
2.36 5.67 8.2 10.03 11.14 11.56 11.36 10.76
10.1 9.63 9.48 9.63 9.94 10.25 10.48 10.66
10.83 10.98 10.99 10.69 9.98 8.88 7.55 6.22
5.05 4.01 2.95 1.66 0.03 -1.88 -3.95 -6.03
-8.07 -10.13 -12.37 -14.9 -17.77 -20.95 -24.16 -27.05
-29.08 -29.7 -28.53 -25.48 -20.88 -15.29 -9.4 -3.81
1.1 5.13 8.19 10.22 11.23 11.3 10.67 9.68
8.65 7.85 7.48 7.65 8.36 9.56 11.07 12.67
14.09 15.24 16.04 16.49 16.53 16.06 14.98 13.31
11.22 9.03 7.03 5.33 3.83 2.32 0.58 -1.45
-3.71 -6.05 -8.4 -10.79 -13.35 -16.22 -19.36 -22.54
-25.26 -26.94 -27.1 -25.54 -22.42 -18.22 -13.51 -8.79
-4.39 -0.4 3.13 6.13 8.47 10.01 10.69 10.59
9.94 9.04 8.16 7.49 7.13 7.16 7.58 8.4
9.47 10.64 11.71 12.59 13.25 13.68 13.91 13.83
13.39 12.58 11.54 10.48 9.61 8.96 8.32 7.4
5.9 3.77 1.15 -1.73 -4.64 -7.47 -10.11 -12.4
-14.02 -14.63 -14.0 -12.17 -9.44 -6.28 -3.13 -0.3
2.1 4.06 5.6 6.7 7.27 7.23 6.63 5.6
4.44 3.49 3.0 3.05 3.49 4.02 4.31 4.17
3.59 2.78 2.01 1.48 1.22 1.07 0.8 0.24
-0.68 -1.88 -3.18 -4.47 -5.71 -7.0 -8.51 -10.35
-12.54 -14.96 -17.36 -19.4 -20.77 -21.19 -20.48 -18.67
-15.97 -12.74 -9.4 -6.34 -3.8 -1.85 -0.43 0.6
1.3 1.78 2.07 2.23 2.31 2.36 2.39 2.41
2.43 2.49 2.61 2.76 2.77 2.47 1.77 0.68
-0.65 -2.06 -3.45 -4.81 -6.15 -7.54 -8.89 -10.17
00000000: 48e1 7a14 ae47 2440 8fc2 f528 5c0f 2340
00000010: 0ad7 a370 3d0a 2240 ec51 b81e 856b 2140
00000020: 295c 8fc2 f528 2140 3333 3333 3333 2140
00000030: 48e1 7a14 ae47 2140 3333 3333 3333 2140
00000040: cdcc cccc cccc 2040 9a99 9999 9919 2040
00000050: a470 3d0a d7a3 1e40 b81e 85eb 51b8 1d40
00000060: 0ad7 a370 3d0a 1e40 8fc2 f528 5c8f 1f40
00000070: 3d0a d7a3 70bd 2040 a470 3d0a d723 2140
00000080: 5c8f c2f5 285c 2040 f628 5c8f c2f5 1b40
00000090: 5c8f c2f5 285c 1440 713d 0ad7 a370 0540
000000a0: 0ad7 a370 3d0a b73f ae47 e17a 14ae 03c0
000000b0: 6666 6666 6666 13c0 3333 3333 3333 1cc0
000000c0: 48e1 7a14 ae47 22c0 0000 0000 0080 26c0
000000d0: 3d0a d7a3 703d 2bc0 3d0a d7a3 707d 30c0
000000e0: c3f5 285c 8f02 34c0 8fc2 f528 5c0f 38c0
000000f0: 295c 8fc2 f528 3cc0 0000 0000 0080 3fc0
00000100: 0000 0000 00a0 40c0 85eb 51b8 1e65 40c0
00000110: b81e 85eb 51f8 3dc0 713d 0ad7 a330 39c0
00000120: 3333 3333 3333 33c0 c3f5 285c 8fc2 29c0
00000130: cdcc cccc cccc 1bc0 1f85 eb51 b81e fdbf
00000140: e17a 14ae 47e1 0240 ae47 e17a 14ae 1640
00000150: 6666 6666 6666 2040 8fc2 f528 5c0f 2440
00000160: 48e1 7a14 ae47 2640 1f85 eb51 b81e 2740
00000170: b81e 85eb 51b8 2640 85eb 51b8 1e85 2540
00000180: 3333 3333 3333 2440 c3f5 285c 8f42 2340
00000190: f628 5c8f c2f5 2240 c3f5 285c 8f42 2340
000001a0: e17a 14ae 47e1 2340 0000 0000 0080 2440
000001b0: f628 5c8f c2f5 2440 52b8 1e85 eb51 2540
000001c0: 295c 8fc2 f5a8 2540 f628 5c8f c2f5 2540
000001d0: 7b14 ae47 e1fa 2540 e17a 14ae 4761 2540
000001e0: f628 5c8f c2f5 2340 c3f5 285c 8fc2 2140
000001f0: 3333 3333 3333 1e40 e17a 14ae 47e1 1840
00000200: 3333 3333 3333 1440 0ad7 a370 3d0a 1040
00000210: 9a99 9999 9999 0740 8fc2 f528 5c8f fa3f
00000220: b81e 85eb 51b8 9e3f 14ae 47e1 7a14 febf
00000230: 9a99 9999 9999 0fc0 1f85 eb51 b81e 18c0
00000240: a470 3d0a d723 20c0 c3f5 285c 8f42 24c0
00000250: 3d0a d7a3 70bd 28c0 cdcc cccc cccc 2dc0
00000260: 85eb 51b8 1ec5 31c0 3333 3333 33f3 34c0
00000270: 295c 8fc2 f528 38c0 cdcc cccc cc0c 3bc0
00000280: 14ae 47e1 7a14 3dc0 3333 3333 33b3 3dc0
00000290: 48e1 7a14 ae87 3cc0 7b14 ae47 e17a 39c0
000002a0: e17a 14ae 47e1 34c0 14ae 47e1 7a94 2ec0
000002b0: cdcc cccc cccc 22c0 7b14 ae47 e17a 0ec0
000002c0: 9a99 9999 9999 f13f 85eb 51b8 1e85 1440
000002d0: e17a 14ae 4761 2040 713d 0ad7 a370 2440
000002e0: f628 5c8f c275 2640 9a99 9999 9999 2640
000002f0: d7a3 703d 0a57 2540 5c8f c2f5 285c 2340
00000300: cdcc cccc cc4c 2140 6666 6666 6666 1f40
00000310: ec51 b81e 85eb 1d40 9a99 9999 9999 1e40
00000320: b81e 85eb 51b8 2040 1f85 eb51 b81e 2340
00000330: a470 3d0a d723 2640 d7a3 703d 0a57 2940
00000340: ae47 e17a 142e 2c40 7b14 ae47 e17a 2e40
00000350: 0ad7 a370 3d0a 3040 3d0a d7a3 707d 3040
00000360: 48e1 7a14 ae87 3040 8fc2 f528 5c0f 3040
00000370: f628 5c8f c2f5 2d40 1f85 eb51 b89e 2a40
00000380: 713d 0ad7 a370 2640 8fc2 f528 5c0f 2240
00000390: 1f85 eb51 b81e 1c40 52b8 1e85 eb51 1540
000003a0: a470 3d0a d7a3 0e40 8fc2 f528 5c8f 0240
000003b0: 8fc2 f528 5c8f e23f 3333 3333 3333 f7bf
000003c0: ae47 e17a 14ae 0dc0 3333 3333 3333 18c0
000003d0: cdcc cccc cccc 20c0 14ae 47e1 7a94 25c0
000003e0: 3333 3333 33b3 2ac0 b81e 85eb 5138 30c0
000003f0: 5c8f c2f5 285c 33c0 0ad7 a370 3d8a 36c0
00000400: c3f5 285c 8f42 39c0 713d 0ad7 a3f0 3ac0
00000410: 9a99 9999 9919 3bc0 0ad7 a370 3d8a 39c0
00000420: ec51 b81e 856b 36c0 b81e 85eb 5138 32c0
00000430: 85eb 51b8 1e05 2bc0 14ae 47e1 7a94 21c0
00000440: 8fc2 f528 5c8f 11c0 9a99 9999 9999 d9bf
00000450: 0ad7 a370 3d0a 0940 85eb 51b8 1e85 1840
00000460: 713d 0ad7 a3f0 2040 85eb 51b8 1e05 2440
00000470: e17a 14ae 4761 2540 ae47 e17a 142e 2540
00000480: e17a 14ae 47e1 2340 14ae 47e1 7a14 2240
00000490: 52b8 1e85 eb51 2040 f628 5c8f c2f5 1d40
000004a0: 85eb 51b8 1e85 1c40 a470 3d0a d7a3 1c40
000004b0: 52b8 1e85 eb51 1e40 cdcc cccc cccc 2040
000004c0: 713d 0ad7 a3f0 2240 48e1 7a14 ae47 2540
000004d0: ec51 b81e 856b 2740 ae47 e17a 142e 2940
000004e0: 0000 0000 0080 2a40 5c8f c2f5 285c 2b40
000004f0: 52b8 1e85 ebd1 2b40 295c 8fc2 f5a8 2b40
00000500: 48e1 7a14 aec7 2a40 295c 8fc2 f528 2940
00000510: 14ae 47e1 7a14 2740 f628 5c8f c2f5 2440
00000520: b81e 85eb 5138 2340 ec51 b81e 85eb 2140
00000530: a470 3d0a d7a3 2040 9a99 9999 9999 1d40
00000540: 9a99 9999 9999 1740 295c 8fc2 f528 0e40
00000550: 6666 6666 6666 f23f ae47 e17a 14ae fbbf
00000560: 8fc2 f528 5c8f 12c0 e17a 14ae 47e1 1dc0
00000570: b81e 85eb 5138 24c0 cdcc cccc cccc 28c0
00000580: 0ad7 a370 3d0a 2cc0 c3f5 285c 8f42 2dc0
00000590: 0000 0000 0000 2cc0 d7a3 703d 0a57 28c0
000005a0: e17a 14ae 47e1 22c0 1f85 eb51 b81e 19c0
000005b0: 0ad7 a370 3d0a 09c0 3333 3333 3333 d3bf
000005c0: cdcc cccc cccc 0040 3d0a d7a3 703d 1040
000005d0: 6666 6666 6666 1640 cdcc cccc cccc 1a40
000005e0: 14ae 47e1 7a14 1d40 ec51 b81e 85eb 1c40
000005f0: 85eb 51b8 1e85 1a40 6666 6666 6666 1640
00000600: c3f5 285c 8fc2 1140 ec51 b81e 85eb 0b40
00000610: 0000 0000 0000 0840 6666 6666 6666 0840
00000620: ec51 b81e 85eb 0b40 14ae 47e1 7a14 1040
00000630: 3d0a d7a3 703d 1140 ae47 e17a 14ae 1040
00000640: b81e 85eb 51b8 0c40 3d0a d7a3 703d 0640
00000650: 14ae 47e1 7a14 0040 ae47 e17a 14ae f73f
00000660: 85eb 51b8 1e85 f33f 1f85 eb51 b81e f13f
00000670: 9a99 9999 9999 e93f b81e 85eb 51b8 ce3f
00000680: c3f5 285c 8fc2 e5bf 14ae 47e1 7a14 febf
00000690: 713d 0ad7 a370 09c0 e17a 14ae 47e1 11c0
000006a0: d7a3 703d 0ad7 16c0 0000 0000 0000 1cc0
000006b0: 85eb 51b8 1e05 21c0 3333 3333 33b3 24c0
000006c0: 14ae 47e1 7a14 29c0 ec51 b81e 85eb 2dc0
000006d0: 5c8f c2f5 285c 31c0 6666 6666 6666 33c0
000006e0: 85eb 51b8 1ec5 34c0 713d 0ad7 a330 35c0
000006f0: 7b14 ae47 e17a 34c0 ec51 b81e 85ab 32c0
00000700: 713d 0ad7 a3f0 2fc0 7b14 ae47 e17a 29c0
00000710: cdcc cccc cccc 22c0 5c8f c2f5 285c 19c0
00000720: 6666 6666 6666 0ec0 9a99 9999 9999 fdbf
00000730: 85eb 51b8 1e85 dbbf 3333 3333 3333 e33f
00000740: cdcc cccc cccc f43f 7b14 ae47 e17a fc3f
00000750: 8fc2 f528 5c8f 0040 d7a3 703d 0ad7 0140
00000760: 7b14 ae47 e17a 0240 e17a 14ae 47e1 0240
00000770: 1f85 eb51 b81e 0340 48e1 7a14 ae47 0340
00000780: 713d 0ad7 a370 0340 ec51 b81e 85eb 0340
00000790: e17a 14ae 47e1 0440 14ae 47e1 7a14 0640
000007a0: 295c 8fc2 f528 0640 c3f5 285c 8fc2 0340
000007b0: 52b8 1e85 eb51 fc3f c3f5 285c 8fc2 e53f
000007c0: cdcc cccc cccc e4bf 7b14 ae47 e17a 00c0
000007d0: 9a99 9999 9999 0bc0 3d0a d7a3 703d 13c0
000007e0: 9a99 9999 9999 18c0 295c 8fc2 f528 1ec0
000007f0: 48e1 7a14 aec7 21c0 d7a3 703d 0a57 24c0
