bvpsGT_w10_s2_T2_15.npy (npy, 92288 bytes, 1 tensors)

array f8 [1, 11520]
00000000: e17a 14ae 47e1 37c0 a470 3d0a d7a3 3bc0
00000010: a470 3d0a d7a3 3fc0 e17a 14ae 4721 42c0
00000020: 3333 3333 33d3 44c0 295c 8fc2 f5c8 47c0
00000030: 713d 0ad7 a3b0 4ac0 cdcc cccc cc0c 4dc0
00000040: 48e1 7a14 ae47 4ec0 d7a3 703d 0ad7 4dc0
00000050: f628 5c8f c255 4bc0 8fc2 f528 5caf 46c0
00000060: a470 3d0a d723 40c0 d7a3 703d 0a97 30c0
00000070: b81e 85eb 51b8 ae3f 7b14 ae47 e1fa 2f40
00000080: 0000 0000 00c0 3d40 7b14 ae47 e13a 4440
00000090: 0ad7 a370 3dea 4740 295c 8fc2 f508 4a40
000000a0: 3333 3333 33d3 4a40 14ae 47e1 7a94 4a40
000000b0: 7b14 ae47 e19a 4940 0ad7 a370 3d2a 4840
000000c0: 0ad7 a370 3d8a 4640 7b14 ae47 e1fa 4440
000000d0: 713d 0ad7 a3b0 4340 c3f5 285c 8fc2 4240
000000e0: 3333 3333 3333 4240 cdcc cccc ccec 4140
000000f0: 0000 0000 00e0 4140 295c 8fc2 f508 4240
00000100: 6666 6666 6666 4240 ae47 e17a 14ee 4240
00000110: b81e 85eb 5178 4340 295c 8fc2 f5c8 4340
00000120: 1f85 eb51 b89e 4340 52b8 1e85 ebd1 4240
00000130: 0000 0000 0060 4140 0ad7 a370 3dca 3e40
00000140: e17a 14ae 4721 3a40 d7a3 703d 0a17 3540
00000150: 3333 3333 33b3 2f40 9a99 9999 9919 2540
00000160: d7a3 703d 0ad7 1440 0ad7 a370 3d0a c7bf
00000170: cdcc cccc cccc 16c0 713d 0ad7 a3f0 26c0
00000180: 5c8f c2f5 289c 31c0 1f85 eb51 b81e 38c0
00000190: c3f5 285c 8fc2 3ec0 b81e 85eb 5198 42c0
000001a0: e17a 14ae 4781 45c0 0ad7 a370 3d0a 48c0
000001b0: ae47 e17a 144e 4ac0 14ae 47e1 7a94 4cc0
000001c0: 713d 0ad7 a330 4fc0 7b14 ae47 e12a 51c0
000001d0: 14ae 47e1 7af4 52c0 0ad7 a370 3dba 54c0
000001e0: 0ad7 a370 3d1a 56c0 d7a3 703d 0aa7 56c0
000001f0: 6666 6666 6606 56c0 713d 0ad7 a310 54c0
00000200: 0000 0000 00e0 50c0 8fc2 f528 5c8f 49c0
00000210: 1f85 eb51 b87e 40c0 1f85 eb51 b81e 2ec0
00000220: 7b14 ae47 e17a f03f 7b14 ae47 e17a 2c40
00000230: ec51 b81e 852b 3840 f628 5c8f c2f5 3e40
00000240: 52b8 1e85 eb91 4140 14ae 47e1 7ab4 4240
00000250: b81e 85eb 5138 4340 295c 8fc2 f568 4340
00000260: 7b14 ae47 e17a 4340 3333 3333 3393 4340
00000270: 8fc2 f528 5ccf 4340 a470 3d0a d743 4440
00000280: 3d0a d7a3 70fd 4440 9a99 9999 99f9 4540
00000290: 48e1 7a14 ae27 4740 ec51 b81e 856b 4840
000002a0: 85eb 51b8 1ea5 4940 d7a3 703d 0ab7 4a40
000002b0: d7a3 703d 0a97 4b40 5c8f c2f5 283c 4c40
000002c0: 85eb 51b8 1ea5 4c40 ae47 e17a 14ce 4c40
000002d0: cdcc cccc ccac 4c40 52b8 1e85 eb31 4c40
000002e0: cdcc cccc cc4c 4b40 b81e 85eb 51f8 4940
000002f0: 52b8 1e85 eb31 4840 295c 8fc2 f508 4640
00000300: 3333 3333 3393 4340 713d 0ad7 a3f0 4040
00000310: c3f5 285c 8f82 3c40 7b14 ae47 e13a 3740
00000320: 14ae 47e1 7a14 3240 48e1 7a14 aec7 2940
00000330: 7b14 ae47 e17a 1d40 0000 0000 0000 f43f
00000340: 52b8 1e85 eb51 16c0 d7a3 703d 0ad7 29c0
00000350: 52b8 1e85 eb51 34c0 cdcc cccc cc4c 3bc0
00000360: 6666 6666 66c6 40c0 b81e 85eb 5198 43c0
00000370: 52b8 1e85 eb51 46c0 48e1 7a14 ae47 49c0
00000380: 6666 6666 66c6 4cc0 b81e 85eb 5178 50c0
00000390: 0ad7 a370 3dda 52c0 0000 0000 0060 55c0
000003a0: 14ae 47e1 7ac4 57c0 3333 3333 33b3 59c0
000003b0: 48e1 7a14 aed7 5ac0 1f85 eb51 b8ee 5ac0
000003c0: 713d 0ad7 a3e0 59c0 295c 8fc2 f5c8 57c0
000003d0: 3333 3333 33f3 54c0 0ad7 a370 3dca 51c0
000003e0: 713d 0ad7 a370 4dc0 0000 0000 0020 48c0
000003f0: f628 5c8f c2f5 43c0 cdcc cccc ccec 40c0
00000400: 48e1 7a14 ae87 3dc0 0000 0000 0040 3ac0
00000410: 3d0a d7a3 703d 37c0 ae47 e17a 14ee 33c0
00000420: 3d0a d7a3 70bd 2fc0 3333 3333 33b3 25c0
00000430: 295c 8fc2 f528 13c0 8fc2 f528 5c8f 0240
00000440: c3f5 285c 8fc2 2440 0000 0000 0040 3340
00000450: 3333 3333 33b3 3c40 f628 5c8f c235 4340
00000460: 0000 0000 0000 4840 3333 3333 3373 4c40
00000470: 85eb 51b8 1e25 5040 e17a 14ae 47a1 5140
00000480: 295c 8fc2 f598 5240 14ae 47e1 7a04 5340
00000490: 7b14 ae47 e1ea 5240 9a99 9999 9959 5240
000004a0: a470 3d0a d763 5140 295c 8fc2 f518 5040
000004b0: 0ad7 a370 3d0a 4d40 ae47 e17a 146e 4940
000004c0: 295c 8fc2 f588 4540 8fc2 f528 5c8f 4140
000004d0: 0000 0000 0080 3b40 d7a3 703d 0a97 3440
000004e0: 295c 8fc2 f528 2d40 d7a3 703d 0ad7 2240
000004f0: 713d 0ad7 a370 1340 d7a3 703d 0ad7 e33f
00000500: 8fc2 f528 5c8f 0cc0 9a99 9999 9999 1fc0
00000510: 85eb 51b8 1e05 29c0 3333 3333 3373 31c0
00000520: e17a 14ae 47a1 36c0 f628 5c8f c2b5 3bc0
00000530: a470 3d0a d703 40c0 5c8f c2f5 285c 41c0
00000540: f628 5c8f c275 41c0 ec51 b81e 850b 40c0
00000550: b81e 85eb 5138 3ac0 ec51 b81e 85eb 31c0
00000560: 3333 3333 3333 20c0 713d 0ad7 a370 0140
00000570: a470 3d0a d723 2840 ec51 b81e 85eb 3440
00000580: cdcc cccc cc4c 3c40 0ad7 a370 3dea 4040
00000590: 3333 3333 3393 4240 5c8f c2f5 28fc 4240
000005a0: 5c8f c2f5 281c 4240 f628 5c8f c215 4040
000005b0: 713d 0ad7 a370 3a40 cdcc cccc cccc 3340
000005c0: 9a99 9999 9919 2a40 5c8f c2f5 285c 1b40
000005d0: 8fc2 f528 5c8f fa3f 1f85 eb51 b81e 01c0
000005e0: 713d 0ad7 a370 11c0 b81e 85eb 51b8 13c0
000005f0: 0000 0000 0000 10c0 d7a3 703d 0ad7 ffbf
00000600: 5c8f c2f5 285c df3f 6666 6666 6666 0640
00000610: 9a99 9999 9999 1140 f628 5c8f c2f5 1340
00000620: c3f5 285c 8fc2 1140 6666 6666 6666 0640
00000630: ec51 b81e 85eb c13f 1f85 eb51 b81e 0bc0
00000640: 0ad7 a370 3d0a 1ec0 c3f5 285c 8fc2 27c0
00000650: 14ae 47e1 7a14 30c0 14ae 47e1 7ad4 33c0
00000660: 52b8 1e85 eb11 37c0 0000 0000 0000 3ac0
00000670: 3d0a d7a3 70fd 3cc0 d7a3 703d 0a37 40c0
00000680: 48e1 7a14 ae47 42c0 48e1 7a14 aea7 44c0
00000690: e17a 14ae 4721 47c0 713d 0ad7 a350 49c0
000006a0: 3333 3333 33b3 4ac0 6666 6666 66c6 4ac0
000006b0: e17a 14ae 4721 49c0 295c 8fc2 f5a8 45c0
000006c0: d7a3 703d 0a97 40c0 295c 8fc2 f5e8 34c0
000006d0: d7a3 703d 0ad7 1fc0 0ad7 a370 3d0a 1140
000006e0: ec51 b81e 856b 2d40 14ae 47e1 7ad4 3640
000006f0: 713d 0ad7 a370 3c40 52b8 1e85 eb91 3f40
00000700: 48e1 7a14 ae27 4040 cdcc cccc cccc 3e40
00000710: 52b8 1e85 eb51 3b40 e17a 14ae 4761 3640
00000720: 7b14 ae47 e1ba 3040 ec51 b81e 856b 2640
00000730: d7a3 703d 0ad7 1940 b81e 85eb 51b8 0640
00000740: c3f5 285c 8fc2 d53f 7b14 ae47 e17a f4bf
00000750: 8fc2 f528 5c8f 02c0 52b8 1e85 eb51 08c0
00000760: cdcc cccc cccc 0cc0 85eb 51b8 1e85 10c0
00000770: 3d0a d7a3 703d 13c0 ae47 e17a 14ae 17c0
00000780: 48e1 7a14 ae47 1fc0 ae47 e17a 14ae 25c0
00000790: d7a3 703d 0a57 2ec0 f628 5c8f c2b5 34c0
000007a0: 14ae 47e1 7a14 3bc0 9a99 9999 99d9 40c0
000007b0: c3f5 285c 8f02 44c0 c3f5 285c 8fe2 46c0
000007c0: 85eb 51b8 1e85 49c0 6666 6666 6626 4cc0
000007d0: 7b14 ae47 e11a 4fc0 713d 0ad7 a350 51c0
000007e0: 3d0a d7a3 705d 53c0 b81e 85eb 5188 55c0
000007f0: 3d0a d7a3 707d 57c0 c3f5 285c 8fd2 58c0
-23.88 -27.64 -31.64 -36.26 -41.65 -47.57 -53.38 -58.1
-60.56 -59.68 -54.67 -45.37 -32.28 -16.59 0.06 15.99
29.75 40.46 47.83 52.07 53.65 53.16 51.21 48.33
45.08 41.96 39.38 37.52 36.4 35.85 35.75 36.07
36.8 37.86 38.94 39.57 39.24 37.64 34.75 30.79
26.13 21.09 15.85 10.55 5.21 -0.18 -5.7 -11.47
-17.61 -24.12 -30.76 -37.19 -43.01 -48.08 -52.61 -57.16
-62.38 -68.67 -75.82 -82.91 -88.41 -90.61 -88.1 -80.26
-67.5 -51.12 -32.99 -15.06 1.03 14.24 24.17 30.96
35.14 37.41 38.44 38.82 38.96 39.15 39.62 40.53
41.98 43.95 46.31 48.84 51.29 53.43 55.18 56.47
57.29 57.61 57.35 56.39 54.6 51.94 48.39 44.07
39.15 33.88 28.51 23.23 18.08 12.89 7.37 1.25
-5.58 -12.92 -20.32 -27.3 -33.55 -39.19 -44.64 -50.56
-57.55 -65.88 -75.41 -85.5 -95.07 -102.8 -107.37 -107.73
-103.51 -95.14 -83.8 -71.16 -58.88 -48.25 -39.92 -33.85
-29.53 -26.25 -23.24 -19.93 -15.87 -10.85 -4.79 2.32
10.38 19.25 28.7 38.42 48.0 56.9 64.58 70.52
74.39 76.07 75.67 73.4 69.56 64.39 58.08 50.86
43.07 35.12 27.5 20.59 14.58 9.42 4.86 0.62
-3.57 -7.9 -12.51 -17.45 -22.63 -27.71 -32.03 -34.72
-34.92 -32.09 -26.22 -17.92 -8.1 2.18 12.07 20.92
28.3 33.83 37.15 37.97 36.22 32.17 26.44 19.8
13.05 6.84 1.66 -2.14 -4.36 -4.93 -4.0 -1.99
0.49 2.8 4.4 4.99 4.44 2.8 0.14 -3.39
-7.51 -11.88 -16.08 -19.83 -23.07 -26.0 -28.99 -32.43
-36.56 -41.31 -46.26 -50.63 -53.4 -53.55 -50.26 -43.32
-33.18 -20.91 -7.96 4.26 14.71 22.83 28.44 31.57
32.31 30.8 27.32 22.38 16.73 11.21 6.46 2.84
0.34 -1.28 -2.32 -3.04 -3.6 -4.13 -4.81 -5.92
-7.82 -10.84 -15.17 -20.71 -27.08 -33.7 -40.02 -45.77
-51.04 -56.3 -62.21 -69.26 -77.46 -86.13 -93.96 -99.29
