bvpsGT_w10_s3_T1_35.npy (npy, 92288 bytes, 1 tensors)

array f8 [1, 11520]
13.17 12.88 12.94 13.38 14.04 14.6 14.76 14.35
13.37 11.98 10.37 8.66 6.82 4.8 2.56 0.13
-2.36 -4.8 -7.25 -9.88 -12.9 -16.37 -20.02 -23.16
-24.87 -24.3 -21.07 -15.49 -8.5 -1.4 4.64 8.91
11.33 12.28 12.3 11.8 10.99 9.89 8.54 7.06
5.68 4.62 4.04 3.98 4.36 4.99 5.63 6.01
5.89 5.15 3.8 2.01 -0.02 -2.15 -4.32 -6.56
-8.91 -11.32 -13.74 -16.17 -18.66 -21.25 -23.78 -25.74
-26.39 -25.01 -21.26 -15.53 -8.79 -2.3 2.88 6.29
8.04 8.66 8.71 8.5 8.09 7.37 6.31 5.04
3.9 3.21 3.12 3.54 4.14 4.49 4.29 3.43
2.03 0.38 -1.25 -2.65 -3.84 -4.96 -6.24 -7.82
-9.73 -11.93 -14.35 -16.96 -19.76 -22.62 -25.2 -26.89
-26.93 -24.77 -20.38 -14.33 -7.69 -1.67 2.87 5.61
6.85 7.27 7.5 7.92 8.58 9.23 9.64 9.74
9.63 9.47 9.34 9.13 8.64 7.72 6.38 4.88
3.5 2.44 1.6 0.66 -0.76 -2.88 -5.6 -8.53
-11.16 -13.12 -14.34 -15.1 -15.96 -17.46 -19.92 -23.3
-27.13 -30.54 -32.56 -32.39 -29.69 -24.73 -18.31 -11.52
-5.38 -0.51 2.94 5.21 6.68 7.68 8.38 8.81
8.98 8.94 8.83 8.78 8.84 8.94 8.97 8.78
8.32 7.62 6.79 5.99 5.28 4.66 4.0 3.18
2.04 0.55 -1.25 -3.22 -5.2 -7.04 -8.67 -10.11
-11.48 -13.02 -15.0 -17.56 -20.64 -23.83 -26.41 -27.55
-26.53 -23.13 -17.71 -11.14 -4.56 1.02 5.06 7.51
8.73 9.25 9.46 9.61 9.69 9.67 9.58 9.52
9.62 9.91 10.28 10.44 10.15 9.29 7.98 6.56
5.37 4.6 4.14 3.62 2.6 0.78 -1.84 -4.95
-8.02 -10.54 -12.23 -13.12 -13.54 -13.96 -14.88 -16.66
-19.39 -22.83 -26.42 -29.26 -30.37 -28.97 -24.89 -18.65
-11.38 -4.44 1.12 4.82 6.84 7.75 8.1 8.22
8.18 7.86 7.29 6.63 6.17 6.16 6.66 7.46
00000000: d7a3 703d 0a57 2a40 c3f5 285c 8fc2 2940
00000010: e17a 14ae 47e1 2940 c3f5 285c 8fc2 2a40
00000020: 14ae 47e1 7a14 2c40 3333 3333 3333 2d40
00000030: 85eb 51b8 1e85 2d40 3333 3333 33b3 2c40
00000040: 3d0a d7a3 70bd 2a40 f628 5c8f c2f5 2740
00000050: 3d0a d7a3 70bd 2440 52b8 1e85 eb51 2140
00000060: 48e1 7a14 ae47 1b40 3333 3333 3333 1340
00000070: 7b14 ae47 e17a 0440 a470 3d0a d7a3 c03f
00000080: e17a 14ae 47e1 02c0 3333 3333 3333 13c0
00000090: 0000 0000 0000 1dc0 c3f5 285c 8fc2 23c0
000000a0: cdcc cccc cccc 29c0 1f85 eb51 b85e 30c0
000000b0: 85eb 51b8 1e05 34c0 295c 8fc2 f528 37c0
000000c0: 1f85 eb51 b8de 38c0 cdcc cccc cc4c 38c0
000000d0: 52b8 1e85 eb11 35c0 7b14 ae47 e1fa 2ec0
000000e0: 0000 0000 0000 21c0 6666 6666 6666 f6bf
000000f0: 8fc2 f528 5c8f 1240 52b8 1e85 ebd1 2140
00000100: 295c 8fc2 f5a8 2640 8fc2 f528 5c8f 2840
00000110: 9a99 9999 9999 2840 9a99 9999 9999 2740
00000120: 7b14 ae47 e1fa 2540 48e1 7a14 aec7 2340
00000130: 14ae 47e1 7a14 2140 3d0a d7a3 703d 1c40
00000140: b81e 85eb 51b8 1640 7b14 ae47 e17a 1240
00000150: 295c 8fc2 f528 1040 d7a3 703d 0ad7 0f40
00000160: 713d 0ad7 a370 1140 f628 5c8f c2f5 1340
00000170: 85eb 51b8 1e85 1640 0ad7 a370 3d0a 1840
00000180: 8fc2 f528 5c8f 1740 9a99 9999 9999 1440
00000190: 6666 6666 6666 0e40 14ae 47e1 7a14 0040
000001a0: 7b14 ae47 e17a 94bf 3333 3333 3333 01c0
000001b0: 48e1 7a14 ae47 11c0 3d0a d7a3 703d 1ac0
000001c0: 52b8 1e85 ebd1 21c0 a470 3d0a d7a3 26c0
000001d0: 7b14 ae47 e17a 2bc0 ec51 b81e 852b 30c0
000001e0: 295c 8fc2 f5a8 32c0 0000 0000 0040 35c0
000001f0: 48e1 7a14 aec7 37c0 3d0a d7a3 70bd 39c0
00000200: a470 3d0a d763 3ac0 c3f5 285c 8f02 39c0
00000210: c3f5 285c 8f42 35c0 8fc2 f528 5c0f 2fc0
00000220: 14ae 47e1 7a94 21c0 6666 6666 6666 02c0
00000230: 0ad7 a370 3d0a 0740 295c 8fc2 f528 1940
00000240: 14ae 47e1 7a14 2040 52b8 1e85 eb51 2140
00000250: ec51 b81e 856b 2140 0000 0000 0000 2140
00000260: ae47 e17a 142e 2040 7b14 ae47 e17a 1d40
00000270: 3d0a d7a3 703d 1940 295c 8fc2 f528 1440
00000280: 3333 3333 3333 0f40 ae47 e17a 14ae 0940
00000290: f628 5c8f c2f5 0840 52b8 1e85 eb51 0c40
000002a0: 8fc2 f528 5c8f 1040 f628 5c8f c2f5 1140
000002b0: 295c 8fc2 f528 1140 713d 0ad7 a370 0b40
000002c0: 3d0a d7a3 703d 0040 52b8 1e85 eb51 d83f
000002d0: 0000 0000 0000 f4bf 3333 3333 3333 05c0
000002e0: b81e 85eb 51b8 0ec0 d7a3 703d 0ad7 13c0
000002f0: f628 5c8f c2f5 18c0 48e1 7a14 ae47 1fc0
00000300: f628 5c8f c275 23c0 5c8f c2f5 28dc 27c0
00000310: 3333 3333 33b3 2cc0 f628 5c8f c2f5 30c0
00000320: c3f5 285c 8fc2 33c0 1f85 eb51 b89e 36c0
00000330: 3333 3333 3333 39c0 a470 3d0a d7e3 3ac0
00000340: ae47 e17a 14ee 3ac0 85eb 51b8 1ec5 38c0
00000350: e17a 14ae 4761 34c0 295c 8fc2 f5a8 2cc0
00000360: c3f5 285c 8fc2 1ec0 b81e 85eb 51b8 fabf
00000370: f628 5c8f c2f5 0640 713d 0ad7 a370 1640
00000380: 6666 6666 6666 1b40 14ae 47e1 7a14 1d40
00000390: 0000 0000 0000 1e40 ae47 e17a 14ae 1f40
000003a0: 295c 8fc2 f528 2140 f628 5c8f c275 2240
000003b0: 48e1 7a14 ae47 2340 7b14 ae47 e17a 2340
000003c0: c3f5 285c 8f42 2340 713d 0ad7 a3f0 2240
000003d0: ae47 e17a 14ae 2240 c3f5 285c 8f42 2240
000003e0: 48e1 7a14 ae47 2140 e17a 14ae 47e1 1e40
000003f0: 85eb 51b8 1e85 1940 85eb 51b8 1e85 1340
00000400: 0000 0000 0000 0c40 85eb 51b8 1e85 0340
00000410: 9a99 9999 9999 f93f 1f85 eb51 b81e e53f
00000420: 52b8 1e85 eb51 e8bf 0ad7 a370 3d0a 07c0
00000430: 6666 6666 6666 16c0 8fc2 f528 5c0f 21c0
00000440: 52b8 1e85 eb51 26c0 3d0a d7a3 703d 2ac0
00000450: ae47 e17a 14ae 2cc0 3333 3333 3333 2ec0
00000460: ec51 b81e 85eb 2fc0 f628 5c8f c275 31c0
00000470: ec51 b81e 85eb 33c0 cdcc cccc cc4c 37c0
00000480: e17a 14ae 4721 3bc0 0ad7 a370 3d8a 3ec0
00000490: 48e1 7a14 ae47 40c0 52b8 1e85 eb31 40c0
000004a0: 713d 0ad7 a3b0 3dc0 7b14 ae47 e1ba 38c0
000004b0: 8fc2 f528 5c4f 32c0 0ad7 a370 3d0a 27c0
000004c0: 85eb 51b8 1e85 15c0 52b8 1e85 eb51 e0bf
000004d0: 85eb 51b8 1e85 0740 d7a3 703d 0ad7 1440
000004e0: b81e 85eb 51b8 1a40 b81e 85eb 51b8 1e40
000004f0: c3f5 285c 8fc2 2040 1f85 eb51 b89e 2140
00000500: f628 5c8f c2f5 2140 e17a 14ae 47e1 2140
00000510: 295c 8fc2 f5a8 2140 8fc2 f528 5c8f 2140
00000520: ae47 e17a 14ae 2140 e17a 14ae 47e1 2140
00000530: 713d 0ad7 a3f0 2140 8fc2 f528 5c8f 2140
00000540: a470 3d0a d7a3 2040 7b14 ae47 e17a 1e40
00000550: 295c 8fc2 f528 1b40 f628 5c8f c2f5 1740
00000560: 1f85 eb51 b81e 1540 a470 3d0a d7a3 1240
00000570: 0000 0000 0000 1040 713d 0ad7 a370 0940
00000580: 52b8 1e85 eb51 0040 9a99 9999 9999 e13f
00000590: 0000 0000 0000 f4bf c3f5 285c 8fc2 09c0
000005a0: cdcc cccc cccc 14c0 295c 8fc2 f528 1cc0
000005b0: d7a3 703d 0a57 21c0 b81e 85eb 5138 24c0
000005c0: f628 5c8f c2f5 26c0 0ad7 a370 3d0a 2ac0
000005d0: 0000 0000 0000 2ec0 8fc2 f528 5c8f 31c0
000005e0: a470 3d0a d7a3 34c0 14ae 47e1 7ad4 37c0
000005f0: 295c 8fc2 f568 3ac0 cdcc cccc cc8c 3bc0
00000600: 48e1 7a14 ae87 3ac0 e17a 14ae 4721 37c0
00000610: f628 5c8f c2b5 31c0 48e1 7a14 ae47 26c0
00000620: 3d0a d7a3 703d 12c0 52b8 1e85 eb51 f03f
00000630: 3d0a d7a3 703d 1440 0ad7 a370 3d0a 1e40
00000640: f628 5c8f c275 2140 0000 0000 0080 2240
00000650: ec51 b81e 85eb 2240 b81e 85eb 5138 2340
00000660: e17a 14ae 4761 2340 d7a3 703d 0a57 2340
00000670: 295c 8fc2 f528 2340 0ad7 a370 3d0a 2340
00000680: 3d0a d7a3 703d 2340 52b8 1e85 ebd1 2340
00000690: 8fc2 f528 5c8f 2440 e17a 14ae 47e1 2440
000006a0: cdcc cccc cc4c 2440 14ae 47e1 7a94 2240
000006b0: ec51 b81e 85eb 1f40 3d0a d7a3 703d 1a40
000006c0: 7b14 ae47 e17a 1540 6666 6666 6666 1240
000006d0: 8fc2 f528 5c8f 1040 f628 5c8f c2f5 0c40
000006e0: cdcc cccc cccc 0440 f628 5c8f c2f5 e83f
000006f0: 713d 0ad7 a370 fdbf cdcc cccc cccc 13c0
00000700: 0ad7 a370 3d0a 20c0 14ae 47e1 7a14 25c0
00000710: f628 5c8f c275 28c0 3d0a d7a3 703d 2ac0
00000720: 14ae 47e1 7a14 2bc0 ec51 b81e 85eb 2bc0
00000730: c3f5 285c 8fc2 2dc0 295c 8fc2 f5a8 30c0
00000740: a470 3d0a d763 33c0 14ae 47e1 7ad4 36c0
00000750: ec51 b81e 856b 3ac0 c3f5 285c 8f42 3dc0
00000760: 1f85 eb51 b85e 3ec0 b81e 85eb 51f8 3cc0
00000770: a470 3d0a d7e3 38c0 6666 6666 66a6 32c0
00000780: c3f5 285c 8fc2 26c0 c3f5 285c 8fc2 11c0
00000790: ec51 b81e 85eb f13f 48e1 7a14 ae47 1340
000007a0: 5c8f c2f5 285c 1b40 0000 0000 0000 1f40
000007b0: 3333 3333 3333 2040 713d 0ad7 a370 2040
000007c0: 5c8f c2f5 285c 2040 713d 0ad7 a370 1f40
000007d0: 295c 8fc2 f528 1d40 85eb 51b8 1e85 1a40
000007e0: ae47 e17a 14ae 1840 a470 3d0a d7a3 1840
000007f0: a470 3d0a d7a3 1a40 d7a3 703d 0ad7 1d40
