bvpsGT_w10_s1_T1_35.npy (npy, 92288 bytes, 1 tensors)

array f8 [1, 11520]
00000000: 5c8f c2f5 288c 5640 a470 3d0a d7a3 5540
00000010: 3d0a d7a3 70bd 5440 d7a3 703d 0ae7 5340
00000020: 0000 0000 0030 5340 3333 3333 33a3 5240
00000030: f628 5c8f c245 5240 1f85 eb51 b80e 5240
00000040: d7a3 703d 0ae7 5140 1f85 eb51 b8ae 5140
00000050: 295c 8fc2 f548 5140 713d 0ad7 a3a0 5040
00000060: 3d0a d7a3 705d 4f40 f628 5c8f c2f5 4c40
00000070: 6666 6666 6626 4a40 d7a3 703d 0a17 4740
00000080: ec51 b81e 85eb 4340 a470 3d0a d7c3 4040
00000090: 1f85 eb51 b85e 3b40 1f85 eb51 b85e 3540
000000a0: 5c8f c2f5 28dc 2e40 52b8 1e85 ebd1 2240
000000b0: 0000 0000 0000 0a40 52b8 1e85 eb51 08c0
000000c0: 48e1 7a14 aec7 22c0 ec51 b81e 856b 2fc0
000000d0: 8fc2 f528 5c0f 36c0 14ae 47e1 7a94 3cc0
000000e0: b81e 85eb 51b8 41c0 0000 0000 0060 45c0
000000f0: 3333 3333 3333 49c0 0ad7 a370 3d0a 4dc0
00000100: 48e1 7a14 ae57 50c0 cdcc cccc ccfc 51c0
00000110: e17a 14ae 4771 53c0 295c 8fc2 f5c8 54c0
00000120: cdcc cccc cc2c 56c0 e17a 14ae 47d1 57c0
00000130: 52b8 1e85 ebe1 59c0 9a99 9999 9969 5cc0
00000140: 52b8 1e85 eb41 5fc0 48e1 7a14 ae07 61c0
00000150: 3d0a d7a3 7025 62c0 52b8 1e85 ebb1 62c0
00000160: b81e 85eb 5170 62c0 e17a 14ae 4741 61c0
00000170: 3333 3333 3353 5ec0 0000 0000 00a0 58c0
00000180: 295c 8fc2 f5e8 51c0 14ae 47e1 7a74 45c0
00000190: b81e 85eb 51b8 2cc0 48e1 7a14 aec7 2840
000001a0: e17a 14ae 4721 4240 48e1 7a14 ae47 4c40
000001b0: 6666 6666 6636 5240 ec51 b81e 853b 5540
000001c0: 52b8 1e85 eb31 5740 3d0a d7a3 702d 5840
000001d0: a470 3d0a d753 5840 0000 0000 00e0 5740
000001e0: f628 5c8f c215 5740 c3f5 285c 8f32 5640
000001f0: 3333 3333 3363 5540 7b14 ae47 e1ba 5440
00000200: 48e1 7a14 ae37 5440 ec51 b81e 85cb 5340
00000210: d7a3 703d 0a67 5340 52b8 1e85 eb01 5340
00000220: 9a99 9999 9999 5240 713d 0ad7 a330 5240
00000230: a470 3d0a d7c3 5140 295c 8fc2 f548 5140
00000240: 8fc2 f528 5caf 5040 295c 8fc2 f5c8 4f40
00000250: d7a3 703d 0ab7 4d40 85eb 51b8 1e25 4b40
00000260: 48e1 7a14 ae27 4840 a470 3d0a d7e3 4440
00000270: 3d0a d7a3 707d 4140 1f85 eb51 b81e 3c40
00000280: cdcc cccc cc4c 3540 85eb 51b8 1e05 2d40
00000290: c3f5 285c 8fc2 1e40 3d0a d7a3 703d ea3f
000002a0: 713d 0ad7 a370 18c0 1f85 eb51 b81e 2ac0
000002b0: 7b14 ae47 e1fa 33c0 9a99 9999 99d9 3ac0
000002c0: ae47 e17a 14ce 40c0 3d0a d7a3 701d 44c0
000002d0: 52b8 1e85 eb51 47c0 85eb 51b8 1e65 4ac0
000002e0: 7b14 ae47 e15a 4dc0 14ae 47e1 7a24 50c0
000002f0: 1f85 eb51 b8ae 51c0 9a99 9999 9969 53c0
00000300: 0000 0000 0070 55c0 6666 6666 66c6 57c0
00000310: cdcc cccc cc4c 5ac0 85eb 51b8 1eb5 5cc0
00000320: e17a 14ae 4791 5ec0 a470 3d0a d763 5fc0
00000330: 0ad7 a370 3dca 5ec0 14ae 47e1 7a94 5cc0
00000340: 14ae 47e1 7ad4 58c0 295c 8fc2 f5d8 53c0
00000350: ae47 e17a 142e 4cc0 14ae 47e1 7a14 40c0
00000360: 8fc2 f528 5c0f 21c0 85eb 51b8 1e85 2a40
00000370: 48e1 7a14 ae27 4040 6666 6666 6606 4840
00000380: ec51 b81e 850b 4e40 0000 0000 0010 5140
00000390: b81e 85eb 5128 5240 b81e 85eb 5168 5240
000003a0: 0000 0000 0000 5240 cdcc cccc cc2c 5140
000003b0: 7b14 ae47 e12a 5040 f628 5c8f c255 4e40
000003c0: 14ae 47e1 7a94 4c40 6666 6666 6626 4b40
000003d0: 295c 8fc2 f508 4a40 295c 8fc2 f528 4940
000003e0: 9a99 9999 9979 4840 8fc2 f528 5cef 4740
000003f0: 3d0a d7a3 707d 4740 52b8 1e85 eb11 4740
00000400: 8fc2 f528 5c8f 4640 713d 0ad7 a3d0 4540
00000410: d7a3 703d 0ab7 4440 295c 8fc2 f528 4340
00000420: c3f5 285c 8f22 4140 a470 3d0a d763 3d40
00000430: 713d 0ad7 a3f0 3740 b81e 85eb 5138 3240
00000440: 9a99 9999 9919 2940 c3f5 285c 8fc2 1c40
00000450: ec51 b81e 85eb 0140 a470 3d0a d7a3 02c0
00000460: ec51 b81e 85eb 1ac0 85eb 51b8 1e85 26c0
00000470: 295c 8fc2 f528 30c0 0ad7 a370 3d8a 35c0
00000480: 0ad7 a370 3d4a 3bc0 b81e 85eb 5198 40c0
00000490: d7a3 703d 0a77 43c0 c3f5 285c 8f22 46c0
000004a0: cdcc cccc cc8c 48c0 9a99 9999 99b9 4ac0
000004b0: 1f85 eb51 b8be 4cc0 6666 6666 66c6 4ec0
000004c0: 14ae 47e1 7a84 50c0 1f85 eb51 b8de 51c0
000004d0: ec51 b81e 857b 53c0 85eb 51b8 1e45 55c0
000004e0: 9a99 9999 99f9 56c0 f628 5c8f c235 58c0
000004f0: 5c8f c2f5 288c 58c0 d7a3 703d 0aa7 57c0
00000500: 85eb 51b8 1e65 55c0 8fc2 f528 5cdf 51c0
00000510: e17a 14ae 47c1 4ac0 9a99 9999 9999 40c0
00000520: 3333 3333 3333 28c0 5c8f c2f5 28dc 2040
00000530: 0ad7 a370 3d4a 3b40 295c 8fc2 f5c8 4540
00000540: 0000 0000 0040 4c40 c3f5 285c 8f62 5040
00000550: c3f5 285c 8fa2 5140 14ae 47e1 7af4 5140
00000560: 7b14 ae47 e18a 5140 ec51 b81e 85ab 5040
00000570: 9a99 9999 9939 4f40 48e1 7a14 ae27 4d40
00000580: 0000 0000 0060 4b40 f628 5c8f c2f5 4940
00000590: 0ad7 a370 3dea 4840 8fc2 f528 5c2f 4840
000005a0: 1f85 eb51 b8be 4740 0ad7 a370 3d8a 4740
000005b0: 5c8f c2f5 287c 4740 8fc2 f528 5c6f 4740
000005c0: f628 5c8f c235 4740 c3f5 285c 8fa2 4640
000005d0: 7b14 ae47 e19a 4540 b81e 85eb 5118 4440
000005e0: 295c 8fc2 f528 4240 14ae 47e1 7ad4 3f40
000005f0: 0000 0000 0000 3b40 a470 3d0a d723 3640
00000600: 0000 0000 0080 3140 7b14 ae47 e17a 2a40
00000610: 14ae 47e1 7a94 2240 a470 3d0a d7a3 1540
00000620: 295c 8fc2 f528 f43f 0000 0000 0000 0cc0
00000630: 0000 0000 0000 22c0 ae47 e17a 142e 2ec0
00000640: 1f85 eb51 b85e 35c0 e17a 14ae 4761 3bc0
00000650: 85eb 51b8 1e65 40c0 6666 6666 66c6 42c0
00000660: 7b14 ae47 e1fa 44c0 c3f5 285c 8f42 47c0
00000670: e17a 14ae 47e1 49c0 3d0a d7a3 70fd 4cc0
00000680: a470 3d0a d743 50c0 f628 5c8f c215 52c0
00000690: ec51 b81e 85ab 53c0 5c8f c2f5 28ac 54c0
000006a0: 14ae 47e1 7ac4 54c0 ae47 e17a 14be 53c0
000006b0: 3d0a d7a3 708d 51c0 48e1 7a14 aea7 4cc0
000006c0: 48e1 7a14 aea7 44c0 0000 0000 0080 37c0
000006d0: c3f5 285c 8fc2 14c0 5c8f c2f5 28dc 2840
000006e0: 5c8f c2f5 285c 3c40 e17a 14ae 47e1 4440
000006f0: e17a 14ae 4701 4a40 e17a 14ae 4761 4d40
00000700: 48e1 7a14 ae07 4f40 ec51 b81e 852b 4f40
00000710: cdcc cccc cc2c 4e40 b81e 85eb 5178 4c40
00000720: f628 5c8f c275 4a40 14ae 47e1 7a74 4840
00000730: c3f5 285c 8fa2 4640 f628 5c8f c215 4540
00000740: 3333 3333 33d3 4340 b81e 85eb 51d8 4240
00000750: c3f5 285c 8f22 4240 6666 6666 66a6 4140
00000760: 713d 0ad7 a350 4140 a470 3d0a d703 4140
00000770: d7a3 703d 0a97 4040 c3f5 285c 8fc2 3f40
00000780: cdcc cccc cc8c 3d40 ae47 e17a 146e 3a40
00000790: b81e 85eb 5178 3640 d7a3 703d 0ad7 3140
000007a0: 14ae 47e1 7a94 2940 295c 8fc2 f528 1e40
000007b0: ae47 e17a 14ae 0140 9a99 9999 9999 09c0
000007c0: 14ae 47e1 7a94 21c0 d7a3 703d 0a57 2dc0
000007d0: 713d 0ad7 a3f0 34c0 52b8 1e85 eb91 3bc0
000007e0: b81e 85eb 5138 41c0 295c 8fc2 f5a8 44c0
000007f0: 7b14 ae47 e1fa 47c0 3333 3333 3313 4bc0
90.19 86.56 82.96 79.61 76.75 74.55 73.09 72.23
71.61 70.73 69.14 66.51 62.73 57.92 52.3 46.18
39.84 33.53 27.37 21.37 15.43 9.41 3.25 -3.04
-9.39 -15.71 -22.06 -28.58 -35.44 -42.75 -50.4 -58.08
-65.37 -71.95 -77.77 -83.14 -88.7 -95.27 -103.53 -113.65
-125.03 -136.24 -145.17 -149.56 -147.51 -138.04 -121.3 -98.5
-71.64 -42.91 -14.36 12.39 36.26 56.56 72.85 84.93
92.78 96.71 97.31 95.5 92.34 88.79 85.55 82.92
80.87 79.18 77.61 76.03 74.4 72.76 71.06 69.14
66.74 63.57 59.43 54.29 48.31 41.78 34.98 28.12
21.3 14.51 7.69 0.82 -6.11 -13.06 -19.98 -26.85
-33.61 -40.23 -46.64 -52.79 -58.71 -64.57 -70.73 -77.65
-85.75 -95.1 -105.2 -114.83 -122.27 -125.56 -123.16 -114.32
-99.32 -79.39 -56.36 -32.16 -8.53 13.26 32.31 48.05
60.09 68.25 72.63 73.63 72.0 68.7 64.67 60.67
57.16 54.3 52.07 50.32 48.95 47.87 46.98 46.14
45.12 43.63 41.43 38.32 34.27 29.39 23.94 18.22
12.55 7.19 2.24 -2.33 -6.73 -11.26 -16.16 -21.54
-27.29 -33.19 -38.93 -44.27 -49.1 -53.45 -57.49 -61.55
-66.07 -71.48 -77.93 -85.08 -91.9 -96.84 -98.19 -94.61
-85.58 -71.49 -53.51 -33.2 -12.1 8.43 27.29 43.57
56.5 65.54 70.54 71.82 70.17 66.68 62.45 58.31
54.75 51.92 49.83 48.37 47.49 47.08 46.97 46.87
46.42 45.27 43.21 40.19 36.32 31.83 27.0 22.14
17.5 13.24 9.29 5.41 1.26 -3.5 -9.0 -15.09
-21.37 -27.38 -32.79 -37.55 -41.96 -46.52 -51.76 -57.98
-65.06 -72.34 -78.68 -82.69 -83.07 -78.97 -70.21 -57.31
-41.31 -23.5 -5.19 12.43 28.36 41.76 52.01 58.76
62.06 62.34 60.35 56.94 52.92 48.91 45.27 42.17
39.65 37.69 36.27 35.3 34.63 34.03 33.18 31.76
29.55 26.43 22.47 17.84 12.79 7.54 2.21 -3.2
-8.79 -14.67 -20.94 -27.57 -34.44 -41.32 -47.96 -54.15
