bvpsGT_w10_s2_T3_35.npy (npy, 92288 bytes, 1 tensors)

array f8 [1, 11520]
000000 29 5c 8f c2 f5 28 10 40 29 5c 8f c2 f5 28 bc 3f
       4.04 0.11
000010 7b 14 ae 47 e1 7a 10 c0 9a 99 99 99 99 19 21 c0
       -4.12 -8.55
000020 29 5c 8f c2 f5 28 2a c0 0a d7 a3 70 3d 8a 31 c0
       -13.08 -17.54
000030 48 e1 7a 14 ae c7 35 c0 f6 28 5c 8f c2 b5 39 c0
       -21.78 -25.71
000040 9a 99 99 99 99 59 3d c0 52 b8 1e 85 eb 71 40 c0
       -29.35 -32.89
000050 00 00 00 00 00 40 42 c0 29 5c 8f c2 f5 28 44 c0
       -36.5 -40.32
000060 33 33 33 33 33 13 46 c0 b8 1e 85 eb 51 b8 47 c0
       -44.15 -47.44
000070 33 33 33 33 33 b3 48 c0 a4 70 3d 0a d7 a3 48 c0
       -49.4 -49.28
000080 7b 14 ae 47 e1 5a 47 c0 33 33 33 33 33 f3 44 c0
       -46.71 -41.9
000090 cd cc cc cc cc cc 41 c0 8f c2 f5 28 5c cf 3c c0
       -35.6 -28.81
0000a0 1f 85 eb 51 b8 5e 36 c0 3d 0a d7 a3 70 bd 30 c0
       -22.37 -16.74
0000b0 d7 a3 70 3d 0a d7 27 c0 e1 7a 14 ae 47 e1 1e c0
       -11.92 -7.72
0000c0 d7 a3 70 3d 0a d7 0f c0 ae 47 e1 7a 14 ae e7 bf
       -3.98 -0.74
0000d0 71 3d 0a d7 a3 70 fd 3f cd cc cc cc cc cc 0c 40
       1.84 3.6
0000e0 52 b8 1e 85 eb 51 12 40 3d 0a d7 a3 70 3d 14 40
       4.58 5.06
0000f0 cd cc cc cc cc cc 15 40 a4 70 3d 0a d7 a3 18 40
       5.45 6.16
000100 7b 14 ae 47 e1 7a 1d 40 f6 28 5c 8f c2 f5 21 40
       7.37 8.98
000110 48 e1 7a 14 ae 47 25 40 52 b8 1e 85 eb d1 27 40
       10.64 11.91
000120 66 66 66 66 66 e6 28 40 5c 8f c2 f5 28 5c 28 40
       12.45 12.18
000130 f6 28 5c 8f c2 75 26 40 e1 7a 14 ae 47 e1 23 40
       11.23 9.94
000140 29 5c 8f c2 f5 28 21 40 0a d7 a3 70 3d 0a 1d 40
       8.58 7.26
000150 ae 47 e1 7a 14 ae 17 40 a4 70 3d 0a d7 a3 11 40
       5.92 4.41
000160 71 3d 0a d7 a3 70 05 40 e1 7a 14 ae 47 e1 ea 3f
       2.68 0.84
000170 71 3d 0a d7 a3 70 ed bf c3 f5 28 5c 8f c2 03 c0
       -0.92 -2.47
000180 cd cc cc cc cc cc 0e c0 1f 85 eb 51 b8 1e 15 c0
       -3.85 -5.28
000190 00 00 00 00 00 00 1c c0 c3 f5 28 5c 8f 42 22 c0
       -7.0 -9.13
0001a0 29 5c 8f c2 f5 28 27 c0 52 b8 1e 85 eb 51 2c c0
       -11.58 -14.16
0001b0 e1 7a 14 ae 47 a1 30 c0 52 b8 1e 85 eb d1 32 c0
       -16.63 -18.82
0001c0 85 eb 51 b8 1e 85 34 c0 ae 47 e1 7a 14 6e 35 c0
       -20.52 -21.43
0001d0 0a d7 a3 70 3d 0a 35 c0 14 ae 47 e1 7a d4 32 c0
       -21.04 -18.83
0001e0 8f c2 f5 28 5c 0f 2d c0 52 b8 1e 85 eb d1 20 c0
       -14.53 -8.41
0001f0 a4 70 3d 0a d7 a3 f4 bf cd cc cc cc cc cc 16 40
       -1.29 5.7
000200 14 ae 47 e1 7a 14 27 40 85 eb 51 b8 1e 85 2f 40
       11.54 15.76
000210 85 eb 51 b8 1e 85 32 40 ae 47 e1 7a 14 6e 34 40
       18.52 20.43
000220 a4 70 3d 0a d7 23 36 40 ec 51 b8 1e 85 eb 37 40
       22.14 23.92
000230 00 00 00 00 00 80 39 40 85 eb 51 b8 1e 45 3a 40
       25.5 26.27
000240 0a d7 a3 70 3d 8a 39 40 48 e1 7a 14 ae 07 37 40
       25.54 23.03
000250 f6 28 5c 8f c2 f5 32 40 0a d7 a3 70 3d 0a 2c 40
       18.96 14.02
000260 14 ae 47 e1 7a 14 22 40 b8 1e 85 eb 51 b8 12 40
       9.04 4.68
000270 e1 7a 14 ae 47 e1 f2 3f 71 3d 0a d7 a3 70 f9 bf
       1.18 -1.59
000280 ec 51 b8 1e 85 eb 0f c0 29 5c 8f c2 f5 28 19 c0
       -3.99 -6.29
000290 8f c2 f5 28 5c 0f 21 c0 29 5c 8f c2 f5 28 25 c0
       -8.53 -10.58
0002a0 48 e1 7a 14 ae c7 28 c0 a4 70 3d 0a d7 23 2c c0
       -12.39 -14.07
0002b0 52 b8 1e 85 eb d1 2f c0 f6 28 5c 8f c2 35 32 c0
       -15.91 -18.21
0002c0 33 33 33 33 33 f3 34 c0 f6 28 5c 8f c2 b5 37 c0
       -20.95 -23.71
0002d0 8f c2 f5 28 5c cf 39 c0 a4 70 3d 0a d7 a3 3a c0
       -25.81 -26.64
0002e0 c3 f5 28 5c 8f 02 3a c0 3d 0a d7 a3 70 3d 38 c0
       -26.01 -24.24
0002f0 7b 14 ae 47 e1 fa 35 c0 5c 8f c2 f5 28 dc 33 c0
       -21.98 -19.86
000300 3d 0a d7 a3 70 3d 32 c0 ec 51 b8 1e 85 2b 31 c0
       -18.24 -17.17
000310 0a d7 a3 70 3d 8a 30 c0 48 e1 7a 14 ae 47 30 c0
       -16.54 -16.28
000320 9a 99 99 99 99 59 30 c0 52 b8 1e 85 eb 91 30 c0
       -16.35 -16.57
000330 85 eb 51 b8 1e 85 30 c0 85 eb 51 b8 1e 05 2f c0
       -16.52 -15.51
000340 ec 51 b8 1e 85 eb 29 c0 66 66 66 66 66 66 21 c0
       -12.96 -8.7
000350 85 eb 51 b8 1e 85 09 c0 a4 70 3d 0a d7 a3 04 40
       -3.19 2.58
000360 a4 70 3d 0a d7 a3 1e 40 1f 85 eb 51 b8 1e 27 40
       7.66 11.56
000370 0a d7 a3 70 3d 0a 2d 40 0a d7 a3 70 3d 4a 31 40
       14.52 17.29
000380 5c 8f c2 f5 28 9c 34 40 f6 28 5c 8f c2 b5 38 40
       20.61 24.71
000390 5c 8f c2 f5 28 1c 3d 40 33 33 33 33 33 73 40 40
       29.11 32.9
0003a0 3d 0a d7 a3 70 9d 41 40 c3 f5 28 5c 8f e2 41 40
       35.23 35.77
0003b0 71 3d 0a d7 a3 70 41 40 ae 47 e1 7a 14 ae 40 40
       34.88 33.36
0003c0 e1 7a 14 ae 47 01 40 40 85 eb 51 b8 1e 45 3f 40
       32.01 31.27
0003d0 d7 a3 70 3d 0a 17 3f 40 0a d7 a3 70 3d 0a 3f 40
       31.09 31.04
0003e0 e1 7a 14 ae 47 a1 3e 40 9a 99 99 99 99 99 3d 40
       30.63 29.6
0003f0 7b 14 ae 47 e1 fa 3b 40 c3 f5 28 5c 8f 02 3a 40
       27.98 26.01
000400 66 66 66 66 66 e6 37 40 85 eb 51 b8 1e c5 35 40
       23.9 21.77
000410 d7 a3 70 3d 0a 97 33 40 b8 1e 85 eb 51 38 31 40
       19.59 17.22
000420 14 ae 47 e1 7a 14 2d 40 85 eb 51 b8 1e 05 27 40
       14.54 11.51
000430 66 66 66 66 66 66 20 40 e1 7a 14 ae 47 e1 12 40
       8.2 4.72
000440 d7 a3 70 3d 0a d7 f3 3f cd cc cc cc cc cc 00 c0
       1.24 -2.1
000450 9a 99 99 99 99 99 14 c0 7b 14 ae 47 e1 7a 1f c0
       -5.15 -7.87
000460 0a d7 a3 70 3d 8a 24 c0 5c 8f c2 f5 28 dc 28 c0
       -10.27 -12.43
000470 ec 51 b8 1e 85 eb 2c c0 c3 f5 28 5c 8f 82 30 c0
       -14.46 -16.51
000480 f6 28 5c 8f c2 b5 32 c0 ec 51 b8 1e 85 2b 35 c0
       -18.71 -21.17
000490 f6 28 5c 8f c2 f5 37 c0 9a 99 99 99 99 19 3b c0
       -23.96 -27.1
0004a0 29 5c 8f c2 f5 68 3e c0 48 e1 7a 14 ae c7 40 c0
       -30.41 -33.56
0004b0 c3 f5 28 5c 8f 02 42 c0 3d 0a d7 a3 70 9d 42 c0
       -36.02 -37.23
0004c0 1f 85 eb 51 b8 5e 42 c0 d7 a3 70 3d 0a 37 41 c0
       -36.74 -34.43
0004d0 c3 f5 28 5c 8f 82 3e c0 b8 1e 85 eb 51 78 39 c0
       -30.51 -25.47
0004e0 33 33 33 33 33 f3 33 c0 0a d7 a3 70 3d 0a 2d c0
       -19.95 -14.52
0004f0 00 00 00 00 00 00 23 c0 f6 28 5c 8f c2 f5 13 c0
       -9.5 -4.99
000500 cd cc cc cc cc cc ec bf 71 3d 0a d7 a3 70 07 40
       -0.9 2.93
000510 71 3d 0a d7 a3 70 1a 40 ae 47 e1 7a 14 2e 24 40
       6.61 10.09
000520 ec 51 b8 1e 85 6b 2a 40 00 00 00 00 00 80 2f 40
       13.21 15.75
000530 d7 a3 70 3d 0a 97 31 40 0a d7 a3 70 3d ca 32 40
       17.59 18.79
000540 9a 99 99 99 99 99 33 40 cd cc cc cc cc 4c 34 40
       19.6 20.3
000550 9a 99 99 99 99 19 35 40 c3 f5 28 5c 8f 02 36 40
       21.1 22.01
000560 1f 85 eb 51 b8 de 36 40 00 00 00 00 00 80 37 40
       22.87 23.5
000570 8f c2 f5 28 5c cf 37 40 1f 85 eb 51 b8 de 37 40
       23.81 23.87
000580 52 b8 1e 85 eb d1 37 40 52 b8 1e 85 eb d1 37 40
       23.82 23.82
000590 33 33 33 33 33 f3 37 40 3d 0a d7 a3 70 3d 38 40
       23.95 24.24
0005a0 71 3d 0a d7 a3 b0 38 40 14 ae 47 e1 7a 54 39 40
       24.69 25.33
0005b0 ec 51 b8 1e 85 2b 3a 40 d7 a3 70 3d 0a 17 3b 40
       26.17 27.09
0005c0 9a 99 99 99 99 d9 3b 40 b8 1e 85 eb 51 38 3c 40
       27.85 28.22
0005d0 d7 a3 70 3d 0a 17 3c 40 9a 99 99 99 99 99 3b 40
       28.09 27.6
0005e0 48 e1 7a 14 ae 07 3b 40 33 33 33 33 33 b3 3a 40
       27.03 26.7
0005f0 33 33 33 33 33 b3 3a 40 66 66 66 66 66 e6 3a 40
       26.7 26.9
000600 14 ae 47 e1 7a 14 3b 40 14 ae 47 e1 7a 14 3b 40
       27.08 27.08
000610 00 00 00 00 00 00 3b 40 9a 99 99 99 99 19 3b 40
       27.0 27.1
000620 e1 7a 14 ae 47 a1 3b 40 29 5c 8f c2 f5 a8 3c 40
       27.63 28.66
000630 71 3d 0a d7 a3 f0 3d 40 ec 51 b8 1e 85 eb 3e 40
       29.94 30.92
000640 c3 f5 28 5c 8f 02 3f 40 cd cc cc cc cc cc 3d 40
       31.01 29.8
000650 00 00 00 00 00 40 3b 40 3d 0a d7 a3 70 bd 37 40
       27.25 23.74
000660 b8 1e 85 eb 51 f8 33 40 ec 51 b8 1e 85 ab 30 40
       19.97 16.67
000670 3d 0a d7 a3 70 bd 2c 40 5c 8f c2 f5 28 5c 2a 40
       14.37 13.18
000680 8f c2 f5 28 5c 8f 29 40 f6 28 5c 8f c2 f5 28 40
       12.78 12.48
000690 85 eb 51 b8 1e 05 27 40 7b 14 ae 47 e1 7a 22 40
       11.51 9.24
0006a0 7b 14 ae 47 e1 7a 15 40 7b 14 ae 47 e1 7a a4 3f
       5.37 0.04
0006b0 f6 28 5c 8f c2 f5 18 c0 7b 14 ae 47 e1 7a 29 c0
       -6.24 -12.74
0006c0 85 eb 51 b8 1e c5 32 c0 00 00 00 00 00 00 38 c0
       -18.77 -24.0
0006d0 9a 99 99 99 99 99 3c c0 9a 99 99 99 99 99 40 c0
       -28.6 -33.2
0006e0 48 e1 7a 14 ae 47 43 c0 d7 a3 70 3d 0a 97 46 c0
       -38.56 -45.18
0006f0 b8 1e 85 eb 51 78 4a c0 0a d7 a3 70 3d 8a 4e c0
       -52.94 -61.08
000700 7b 14 ae 47 e1 1a 51 c0 a4 70 3d 0a d7 73 52 c0
       -68.42 -73.81
000710 cd cc cc cc cc 1c 53 c0 b8 1e 85 eb 51 08 53 c0
       -76.45 -76.13
000720 d7 a3 70 3d 0a 47 52 c0 ae 47 e1 7a 14 fe 50 c0
       -73.11 -67.97
000730 ec 51 b8 1e 85 ab 4e c0 ae 47 e1 7a 14 ee 4a c0
       -61.34 -53.86
000740 29 5c 8f c2 f5 08 47 c0 00 00 00 00 00 40 43 c0
       -46.07 -38.5
000750 52 b8 1e 85 eb 91 3f c0 14 ae 47 e1 7a 94 39 c0
       -31.57 -25.58
000760 9a 99 99 99 99 99 34 c0 8f c2 f5 28 5c 8f 30 c0
       -20.6 -16.56
000770 7b 14 ae 47 e1 7a 2a c0 48 e1 7a 14 ae c7 24 c0
       -13.24 -10.39
000780 52 b8 1e 85 eb 51 1f c0 f6 28 5c 8f c2 f5 15 c0
       -7.83 -5.49
000790 1f 85 eb 51 b8 1e 0b c0 71 3d 0a d7 a3 70 f9 bf
       -3.39 -1.59
0007a0 7b 14 ae 47 e1 7a b4 bf 7b 14 ae 47 e1 7a f4 3f
       -0.08 1.28
0007b0 85 eb 51 b8 1e 85 05 40 66 66 66 66 66 66 11 40
       2.69 4.35
0007c0 14 ae 47 e1 7a 14 19 40 33 33 33 33 33 b3 20 40
       6.27 8.35
0007d0 ae 47 e1 7a 14 ae 24 40 9a 99 99 99 99 19 28 40
       10.34 12.05
0007e0 33 33 33 33 33 b3 2a 40 f6 28 5c 8f c2 75 2c 40
       13.35 14.23
0007f0 e1 7a 14 ae 47 61 2d 40 7b 14 ae 47 e1 7a 2d 40
       14.69 14.74
