bvpsGT_w10_s4_T3_35.npy (npy, 92288 bytes, 1 tensors)

array f8 [1, 11520]
-21.0 -12.61 -5.34 0.79 5.94 10.25 13.71 16.17
17.52 17.74 17.06 15.79 14.38 13.17 12.31 11.8
11.47 11.17 10.83 10.5 10.32 10.36 10.57 10.72
10.52 9.67 8.03 5.6 2.55 -0.89 -4.48 -8.05
-11.52 -14.9 -18.35 -22.1 -26.46 -31.68 -37.81 -44.55
-51.15 -56.51 -59.39 -58.85 -54.56 -47.03 -37.39 -27.11
-17.39 -8.79 -1.2 5.94 13.2 20.76 28.32 35.22
40.88 44.99 47.68 49.38 50.58 51.56 52.33 52.7
52.44 51.5 49.99 48.12 46.05 43.7 40.78 36.95
32.05 26.29 20.23 14.65 10.21 7.26 5.67 4.99
4.51 3.55 1.64 -1.33 -5.05 -8.78 -11.58 -12.53
-11.03 -6.99 -0.84 6.66 14.61 22.28 29.2 35.2
40.26 44.51 48.05 51.02 53.56 55.82 57.91 59.9
61.8 63.48 64.82 65.68 66.05 66.1 66.11 66.35
67.07 68.24 69.59 70.58 70.55 68.87 65.12 59.14
51.0 40.84 28.79 14.94 -0.44 -16.77 -32.95 -47.57
-59.17 -66.7 -69.73 -68.59 -64.23 -58.08 -51.96 -47.91
-47.77 -52.65 -62.34 -75.17 -88.53 -99.77 -107.35 -111.31
-113.0 -114.17 -115.93 -118.23 -120.14 -120.58 -119.1 -116.19
-112.84 -109.86 -107.37 -104.72 -100.98 -95.62 -88.89 -81.76
-75.46 -70.9 -68.39 -67.59 -67.88 -68.56 -68.99 -68.55
-66.58 -62.39 -55.53 -45.96 -34.12 -20.87 -7.19 6.07
18.27 29.04 38.17 45.52 51.08 54.8 56.78 57.18
56.28 54.49 52.31 50.21 48.59 47.61 47.16 46.96
46.62 45.82 44.36 42.21 39.45 36.14 32.32 27.94
22.94 17.3 11.07 4.32 -2.79 -9.98 -16.65 -21.88
-24.49 -23.42 -18.04 -8.53 4.21 18.77 33.74 48.02
61.04 72.63 82.91 92.08 100.32 107.77 114.5 120.49
125.65 129.87 133.13 135.44 136.88 137.44 137.11 135.9
133.98 131.72 129.51 127.57 125.79 123.67 120.54 115.77
108.94 99.79 88.0 73.11 54.64 32.41 7.06 -19.81
-45.92 -68.94 -87.24 -100.32 -108.75 -113.68 -116.26 -117.21
00000000: 0000 0000 0000 35c0 b81e 85eb 5138 29c0
00000010: 5c8f c2f5 285c 15c0 48e1 7a14 ae47 e93f
00000020: c3f5 285c 8fc2 1740 0000 0000 0080 2440
00000030: ec51 b81e 856b 2b40 ec51 b81e 852b 3040
00000040: 85eb 51b8 1e85 3140 3d0a d7a3 70bd 3140
00000050: 8fc2 f528 5c0f 3140 14ae 47e1 7a94 2f40
00000060: c3f5 285c 8fc2 2c40 d7a3 703d 0a57 2a40
00000070: 1f85 eb51 b89e 2840 9a99 9999 9999 2740
00000080: 713d 0ad7 a3f0 2640 d7a3 703d 0a57 2640
00000090: 295c 8fc2 f5a8 2540 0000 0000 0000 2540
000000a0: a470 3d0a d7a3 2440 b81e 85eb 51b8 2440
000000b0: a470 3d0a d723 2540 713d 0ad7 a370 2540
000000c0: 0ad7 a370 3d0a 2540 d7a3 703d 0a57 2340
000000d0: 8fc2 f528 5c0f 2040 6666 6666 6666 1640
000000e0: 6666 6666 6666 0440 7b14 ae47 e17a ecbf
000000f0: ec51 b81e 85eb 11c0 9a99 9999 9919 20c0
00000100: 0ad7 a370 3d0a 27c0 cdcc cccc cccc 2dc0
00000110: 9a99 9999 9959 32c0 9a99 9999 9919 36c0
00000120: f628 5c8f c275 3ac0 ae47 e17a 14ae 3fc0
00000130: 48e1 7a14 aee7 42c0 6666 6666 6646 46c0
00000140: 3333 3333 3393 49c0 e17a 14ae 4741 4cc0
00000150: 52b8 1e85 ebb1 4dc0 cdcc cccc cc6c 4dc0
00000160: 48e1 7a14 ae47 4bc0 a470 3d0a d783 47c0
00000170: 52b8 1e85 ebb1 42c0 5c8f c2f5 281c 3bc0
00000180: a470 3d0a d763 31c0 14ae 47e1 7a94 21c0
00000190: 3333 3333 3333 f3bf c3f5 285c 8fc2 1740
000001a0: 6666 6666 6666 2a40 c3f5 285c 8fc2 3440
000001b0: 52b8 1e85 eb51 3c40 5c8f c2f5 289c 4140
000001c0: 713d 0ad7 a370 4440 1f85 eb51 b87e 4640
000001d0: d7a3 703d 0ad7 4740 713d 0ad7 a3b0 4840
000001e0: 0ad7 a370 3d4a 4940 48e1 7a14 aec7 4940
000001f0: 0ad7 a370 3d2a 4a40 9a99 9999 9959 4a40
00000200: b81e 85eb 5138 4a40 0000 0000 00c0 4940
00000210: 1f85 eb51 b8fe 4840 8fc2 f528 5c0f 4840
00000220: 6666 6666 6606 4740 9a99 9999 99d9 4540
00000230: a470 3d0a d763 4440 9a99 9999 9979 4240
00000240: 6666 6666 6606 4040 0ad7 a370 3d4a 3a40
00000250: 7b14 ae47 e13a 3440 cdcc cccc cc4c 2d40
00000260: ec51 b81e 856b 2440 0ad7 a370 3d0a 1d40
00000270: ae47 e17a 14ae 1640 f628 5c8f c2f5 1340
00000280: 0ad7 a370 3d0a 1240 6666 6666 6666 0c40
00000290: 3d0a d7a3 703d fa3f 48e1 7a14 ae47 f5bf
000002a0: 3333 3333 3333 14c0 8fc2 f528 5c8f 21c0
000002b0: 295c 8fc2 f528 27c0 8fc2 f528 5c0f 29c0
000002c0: 8fc2 f528 5c0f 26c0 f628 5c8f c2f5 1bc0
000002d0: e17a 14ae 47e1 eabf a470 3d0a d7a3 1a40
000002e0: b81e 85eb 5138 2d40 48e1 7a14 ae47 3640
000002f0: 3333 3333 3333 3d40 9a99 9999 9999 4140
00000300: e17a 14ae 4721 4440 e17a 14ae 4741 4640
00000310: 6666 6666 6606 4840 c3f5 285c 8f82 4940
00000320: 48e1 7a14 aec7 4a40 295c 8fc2 f5e8 4b40
00000330: 14ae 47e1 7af4 4c40 3333 3333 33f3 4d40
00000340: 6666 6666 66e6 4e40 3d0a d7a3 70bd 4f40
00000350: 14ae 47e1 7a34 5040 ec51 b81e 856b 5040
00000360: 3333 3333 3383 5040 6666 6666 6686 5040
00000370: d7a3 703d 0a87 5040 6666 6666 6696 5040
00000380: 14ae 47e1 7ac4 5040 8fc2 f528 5c0f 5140
00000390: f628 5c8f c265 5140 85eb 51b8 1ea5 5140
000003a0: 3333 3333 33a3 5140 48e1 7a14 ae37 5140
000003b0: 48e1 7a14 ae47 5040 52b8 1e85 eb91 4d40
000003c0: 0000 0000 0080 4940 ec51 b81e 856b 4440
000003d0: 0ad7 a370 3dca 3c40 e17a 14ae 47e1 2d40
000003e0: 295c 8fc2 f528 dcbf 85eb 51b8 1ec5 30c0
000003f0: 9a99 9999 9979 40c0 295c 8fc2 f5c8 47c0
00000400: f628 5c8f c295 4dc0 cdcc cccc ccac 50c0
00000410: 1f85 eb51 b86e 51c0 f628 5c8f c225 51c0
00000420: 1f85 eb51 b80e 50c0 0ad7 a370 3d0a 4dc0
00000430: 7b14 ae47 e1fa 49c0 14ae 47e1 7af4 47c0
00000440: c3f5 285c 8fe2 47c0 3333 3333 3353 4ac0
00000450: ec51 b81e 852b 4fc0 7b14 ae47 e1ca 52c0
00000460: 52b8 1e85 eb21 56c0 e17a 14ae 47f1 58c0
00000470: 6666 6666 66d6 5ac0 a470 3d0a d7d3 5bc0
00000480: 0000 0000 0040 5cc0 7b14 ae47 e18a 5cc0
00000490: ec51 b81e 85fb 5cc0 1f85 eb51 b88e 5dc0
000004a0: 295c 8fc2 f508 5ec0 85eb 51b8 1e25 5ec0
000004b0: 6666 6666 66c6 5dc0 5c8f c2f5 280c 5dc0
000004c0: f628 5c8f c235 5cc0 d7a3 703d 0a77 5bc0
000004d0: 48e1 7a14 aed7 5ac0 ae47 e17a 142e 5ac0
000004e0: 1f85 eb51 b83e 59c0 48e1 7a14 aee7 57c0
000004f0: 295c 8fc2 f538 56c0 713d 0ad7 a370 54c0
00000500: 3d0a d7a3 70dd 52c0 9a99 9999 99b9 51c0
00000510: 295c 8fc2 f518 51c0 f628 5c8f c2e5 50c0
00000520: b81e 85eb 51f8 50c0 a470 3d0a d723 51c0
00000530: 8fc2 f528 5c3f 51c0 3333 3333 3323 51c0
00000540: 85eb 51b8 1ea5 50c0 52b8 1e85 eb31 4fc0
00000550: a470 3d0a d7c3 4bc0 7b14 ae47 e1fa 46c0
00000560: 8fc2 f528 5c0f 41c0 1f85 eb51 b8de 34c0
00000570: c3f5 285c 8fc2 1cc0 48e1 7a14 ae47 1840
00000580: 85eb 51b8 1e45 3240 0ad7 a370 3d0a 3d40
00000590: f628 5c8f c215 4340 c3f5 285c 8fc2 4640
000005a0: 0ad7 a370 3d8a 4940 6666 6666 6666 4b40
000005b0: a470 3d0a d763 4c40 d7a3 703d 0a97 4c40
000005c0: a470 3d0a d723 4c40 1f85 eb51 b83e 4b40
000005d0: 48e1 7a14 ae27 4a40 7b14 ae47 e11a 4940
000005e0: ec51 b81e 854b 4840 ae47 e17a 14ce 4740
000005f0: 14ae 47e1 7a94 4740 7b14 ae47 e17a 4740
00000600: 8fc2 f528 5c4f 4740 295c 8fc2 f5e8 4640
00000610: ae47 e17a 142e 4640 7b14 ae47 e11a 4540
00000620: 9a99 9999 99b9 4340 52b8 1e85 eb11 4240
00000630: 295c 8fc2 f528 4040 713d 0ad7 a3f0 3b40
00000640: 713d 0ad7 a3f0 3640 cdcc cccc cc4c 3140
00000650: a470 3d0a d723 2640 48e1 7a14 ae47 1140
00000660: 52b8 1e85 eb51 06c0 f628 5c8f c2f5 23c0
00000670: 6666 6666 66a6 30c0 e17a 14ae 47e1 35c0
00000680: 3d0a d7a3 707d 38c0 ec51 b81e 856b 37c0
00000690: 0ad7 a370 3d0a 32c0 8fc2 f528 5c0f 21c0
000006a0: d7a3 703d 0ad7 1040 85eb 51b8 1ec5 3240
000006b0: 1f85 eb51 b8de 4040 c3f5 285c 8f02 4840
000006c0: 85eb 51b8 1e85 4e40 b81e 85eb 5128 5240
000006d0: 0ad7 a370 3dba 5440 85eb 51b8 1e05 5740
000006e0: 14ae 47e1 7a14 5940 e17a 14ae 47f1 5a40
000006f0: 0000 0000 00a0 5c40 8fc2 f528 5c1f 5e40
00000700: 9a99 9999 9969 5f40 a470 3d0a d73b 6040
00000710: 5c8f c2f5 28a4 6040 ae47 e17a 14ee 6040
00000720: 5c8f c2f5 281c 6140 ae47 e17a 142e 6140
00000730: ec51 b81e 8523 6140 cdcc cccc ccfc 6040
00000740: 8fc2 f528 5cbf 6040 d7a3 703d 0a77 6040
00000750: b81e 85eb 5130 6040 14ae 47e1 7ae4 5f40
00000760: c3f5 285c 8f72 5f40 7b14 ae47 e1ea 5e40
00000770: c3f5 285c 8f22 5e40 e17a 14ae 47f1 5c40
00000780: 5c8f c2f5 283c 5b40 c3f5 285c 8ff2 5840
00000790: 0000 0000 0000 5640 d7a3 703d 0a47 5240
000007a0: 52b8 1e85 eb51 4b40 14ae 47e1 7a34 4040
000007b0: 3d0a d7a3 703d 1c40 8fc2 f528 5ccf 33c0
000007c0: f628 5c8f c2f5 46c0 5c8f c2f5 283c 51c0
000007d0: 8fc2 f528 5ccf 55c0 14ae 47e1 7a14 59c0
000007e0: 0000 0000 0030 5bc0 ec51 b81e 856b 5cc0
000007f0: 713d 0ad7 a310 5dc0 3d0a d7a3 704d 5dc0
