bvpsGT_w10_s3_T2_30.npy (npy, 92288 bytes, 1 tensors)

array f8 [1, 11520]
000000 0a d7 a3 70 3d 0a ff bf e1 7a 14 ae 47 e1 02 40
       -1.94 2.36
000010 3d 0a d7 a3 70 3d 14 40 48 e1 7a 14 ae 47 1a 40
       5.06 6.57
000020 ec 51 b8 1e 85 eb 1d 40 52 b8 1e 85 eb 51 20 40
       7.48 8.16
000030 29 5c 8f c2 f5 28 21 40 5c 8f c2 f5 28 dc 20 40
       8.58 8.43
000040 9a 99 99 99 99 99 1d 40 f6 28 5c 8f c2 f5 15 40
       7.4 5.49
000050 0a d7 a3 70 3d 0a 09 40 00 00 00 00 00 00 f0 3f
       3.13 1.0
000060 66 66 66 66 66 66 d6 bf c3 f5 28 5c 8f c2 e5 bf
       -0.35 -0.68
000070 71 3d 0a d7 a3 70 cd bf cd cc cc cc cc cc dc 3f
       -0.23 0.45
000080 f6 28 5c 8f c2 f5 e8 3f f6 28 5c 8f c2 f5 d8 3f
       0.78 0.39
000090 ae 47 e1 7a 14 ae e7 bf e1 7a 14 ae 47 e1 02 c0
       -0.74 -2.36
0000a0 48 e1 7a 14 ae 47 10 c0 48 e1 7a 14 ae 47 16 c0
       -4.07 -5.57
0000b0 f6 28 5c 8f c2 f5 1a c0 ec 51 b8 1e 85 eb 1e c0
       -6.74 -7.73
0000c0 33 33 33 33 33 b3 21 c0 e1 7a 14 ae 47 e1 24 c0
       -8.85 -10.44
0000d0 1f 85 eb 51 b8 9e 29 c0 85 eb 51 b8 1e 05 30 c0
       -12.81 -16.02
0000e0 b8 1e 85 eb 51 f8 33 c0 0a d7 a3 70 3d 4a 38 c0
       -19.97 -24.29
0000f0 66 66 66 66 66 66 3c c0 52 b8 1e 85 eb 91 3f c0
       -28.4 -31.57
000100 66 66 66 66 66 86 40 c0 1f 85 eb 51 b8 1e 40 c0
       -33.05 -32.24
000110 f6 28 5c 8f c2 f5 3c c0 cd cc cc cc cc 8c 37 c0
       -28.96 -23.55
000120 9a 99 99 99 99 d9 30 c0 66 66 66 66 66 e6 23 c0
       -16.85 -9.95
000130 f6 28 5c 8f c2 f5 0e c0 f6 28 5c 8f c2 f5 e8 3f
       -3.87 0.78
000140 c3 f5 28 5c 8f c2 0f 40 00 00 00 00 00 00 18 40
       3.97 6.0
000150 29 5c 8f c2 f5 28 1d 40 1f 85 eb 51 b8 1e 20 40
       7.29 8.06
000160 0a d7 a3 70 3d 8a 20 40 14 ae 47 e1 7a 14 1f 40
       8.27 7.77
000170 29 5c 8f c2 f5 28 1a 40 29 5c 8f c2 f5 28 13 40
       6.54 4.79
000180 d7 a3 70 3d 0a d7 07 40 f6 28 5c 8f c2 f5 f8 3f
       2.98 1.56
000190 ae 47 e1 7a 14 ae e7 3f 52 b8 1e 85 eb 51 d8 3f
       0.74 0.38
0001a0 29 5c 8f c2 f5 28 bc 3f 5c 8f c2 f5 28 5c df bf
       0.11 -0.49
0001b0 48 e1 7a 14 ae 47 f9 bf 7b 14 ae 47 e1 7a 08 c0
       -1.58 -3.06
0001c0 5c 8f c2 f5 28 5c 12 c0 33 33 33 33 33 33 17 c0
       -4.59 -5.8
0001d0 00 00 00 00 00 00 1a c0 14 ae 47 e1 7a 14 1b c0
       -6.5 -6.77
0001e0 c3 f5 28 5c 8f c2 1b c0 a4 70 3d 0a d7 a3 1d c0
       -6.94 -7.41
0001f0 14 ae 47 e1 7a 14 21 c0 f6 28 5c 8f c2 f5 24 c0
       -8.54 -10.48
000200 5c 8f c2 f5 28 5c 2a c0 66 66 66 66 66 66 30 c0
       -13.18 -16.4
000210 ae 47 e1 7a 14 ae 33 c0 29 5c 8f c2 f5 68 36 c0
       -19.68 -22.41
000220 f6 28 5c 8f c2 f5 37 c0 00 00 00 00 00 c0 37 c0
       -23.96 -23.75
000230 3d 0a d7 a3 70 7d 35 c0 14 ae 47 e1 7a 54 31 c0
       -21.49 -17.33
000240 3d 0a d7 a3 70 bd 27 c0 ec 51 b8 1e 85 eb 17 c0
       -11.87 -5.98
000250 48 e1 7a 14 ae 47 e1 bf b8 1e 85 eb 51 b8 0e 40
       -0.54 3.84
000260 00 00 00 00 00 00 1c 40 29 5c 8f c2 f5 28 22 40
       7.0 9.08
000270 48 e1 7a 14 ae c7 24 40 33 33 33 33 33 33 26 40
       10.39 11.1
000280 71 3d 0a d7 a3 70 26 40 48 e1 7a 14 ae 47 25 40
       11.22 10.64
000290 1f 85 eb 51 b8 9e 22 40 cd cc cc cc cc cc 1d 40
       9.31 7.45
0002a0 cd cc cc cc cc cc 15 40 7b 14 ae 47 e1 7a 0e 40
       5.45 3.81
0002b0 e1 7a 14 ae 47 e1 06 40 85 eb 51 b8 1e 85 05 40
       2.86 2.69
0002c0 7b 14 ae 47 e1 7a 08 40 52 b8 1e 85 eb 51 0c 40
       3.06 3.54
0002d0 1f 85 eb 51 b8 1e 0d 40 52 b8 1e 85 eb 51 08 40
       3.64 3.04
0002e0 b8 1e 85 eb 51 b8 fa 3f e1 7a 14 ae 47 e1 ca bf
       1.67 -0.21
0002f0 85 eb 51 b8 1e 85 01 c0 cd cc cc cc cc cc 0e c0
       -2.19 -3.85
000300 14 ae 47 e1 7a 14 14 c0 8f c2 f5 28 5c 8f 17 c0
       -5.02 -5.89
000310 ae 47 e1 7a 14 ae 1b c0 5c 8f c2 f5 28 5c 21 c0
       -6.92 -8.68
000320 00 00 00 00 00 00 27 c0 14 ae 47 e1 7a 94 2e c0
       -11.5 -15.29
000330 b8 1e 85 eb 51 78 33 c0 a4 70 3d 0a d7 23 37 c0
       -19.47 -23.14
000340 29 5c 8f c2 f5 68 39 c0 ae 47 e1 7a 14 ae 39 c0
       -25.41 -25.68
000350 1f 85 eb 51 b8 de 37 c0 29 5c 8f c2 f5 68 34 c0
       -23.87 -20.41
000360 48 e1 7a 14 ae 07 30 c0 14 ae 47 e1 7a 14 27 c0
       -16.03 -11.54
000370 33 33 33 33 33 33 1e c0 5c 8f c2 f5 28 5c 11 c0
       -7.55 -4.34
000380 8f c2 f5 28 5c 8f fe bf 9a 99 99 99 99 99 a9 bf
       -1.91 -0.05
000390 33 33 33 33 33 33 f7 3f c3 f5 28 5c 8f c2 05 40
       1.45 2.72
0003a0 ae 47 e1 7a 14 ae 0d 40 33 33 33 33 33 33 11 40
       3.71 4.3
0003b0 48 e1 7a 14 ae 47 11 40 5c 8f c2 f5 28 5c 0d 40
       4.32 3.67
0003c0 48 e1 7a 14 ae 47 03 40 9a 99 99 99 99 99 e9 3f
       2.41 0.8
0003d0 ec 51 b8 1e 85 eb e9 bf cd cc cc cc cc cc 00 c0
       -0.81 -2.1
0003e0 ec 51 b8 1e 85 eb 07 c0 71 3d 0a d7 a3 70 0d c0
       -2.99 -3.68
0003f0 29 5c 8f c2 f5 28 12 c0 d7 a3 70 3d 0a d7 17 c0
       -4.54 -5.96
000400 9a 99 99 99 99 19 20 c0 9a 99 99 99 99 19 25 c0
       -8.05 -10.55
000410 52 b8 1e 85 eb d1 29 c0 29 5c 8f c2 f5 28 2d c0
       -12.91 -14.58
000420 00 00 00 00 00 80 2e c0 14 ae 47 e1 7a 14 2e c0
       -15.25 -15.04
000430 e1 7a 14 ae 47 e1 2c c0 48 e1 7a 14 ae 47 2c c0
       -14.44 -14.14
000440 cd cc cc cc cc 4c 2d c0 d7 a3 70 3d 0a 17 30 c0
       -14.65 -16.09
000450 48 e1 7a 14 ae 07 32 c0 8f c2 f5 28 5c 8f 33 c0
       -18.03 -19.56
000460 5c 8f c2 f5 28 9c 33 c0 cd cc cc cc cc 4c 31 c0
       -19.61 -17.3
000470 c3 f5 28 5c 8f c2 28 c0 71 3d 0a d7 a3 70 15 c0
       -12.38 -5.36
000480 cd cc cc cc cc cc 04 40 cd cc cc cc cc 4c 24 40
       2.6 10.15
000490 33 33 33 33 33 33 30 40 c3 f5 28 5c 8f 42 34 40
       16.2 20.26
0004a0 ae 47 e1 7a 14 6e 36 40 ae 47 e1 7a 14 2e 37 40
       22.43 23.18
0004b0 71 3d 0a d7 a3 f0 36 40 7b 14 ae 47 e1 fa 35 40
       22.94 21.98
0004c0 ae 47 e1 7a 14 6e 34 40 5c 8f c2 f5 28 5c 32 40
       20.43 18.36
0004d0 85 eb 51 b8 1e 05 30 40 8f c2 f5 28 5c 8f 2b 40
       16.02 13.78
0004e0 00 00 00 00 00 00 28 40 9a 99 99 99 99 99 25 40
       12.0 10.8
0004f0 14 ae 47 e1 7a 14 24 40 33 33 33 33 33 b3 22 40
       10.04 9.35
000500 b8 1e 85 eb 51 b8 20 40 7b 14 ae 47 e1 7a 1b 40
       8.36 6.87
000510 c3 f5 28 5c 8f c2 13 40 7b 14 ae 47 e1 7a 06 40
       4.94 2.81
000520 a4 70 3d 0a d7 a3 e8 3f 0a d7 a3 70 3d 0a ef bf
       0.77 -0.97
000530 f6 28 5c 8f c2 f5 02 c0 7b 14 ae 47 e1 7a 0c c0
       -2.37 -3.56
000540 71 3d 0a d7 a3 70 13 c0 e1 7a 14 ae 47 e1 1a c0
       -4.86 -6.72
000550 1f 85 eb 51 b8 1e 23 c0 48 e1 7a 14 ae 47 2b c0
       -9.56 -13.64
000560 d7 a3 70 3d 0a d7 32 c0 7b 14 ae 47 e1 7a 38 c0
       -18.84 -24.48
000570 71 3d 0a d7 a3 70 3d c0 f6 28 5c 8f c2 35 40 c0
       -29.44 -32.42
000580 3d 0a d7 a3 70 3d 40 c0 9a 99 99 99 99 59 3d c0
       -32.48 -29.35
000590 29 5c 8f c2 f5 a8 37 c0 ec 51 b8 1e 85 ab 30 c0
       -23.66 -16.67
0005a0 9a 99 99 99 99 99 23 c0 85 eb 51 b8 1e 85 10 c0
       -9.8 -4.13
0005b0 29 5c 8f c2 f5 28 bc bf ec 51 b8 1e 85 eb 03 40
       -0.11 2.49
0005c0 ec 51 b8 1e 85 eb 10 40 7b 14 ae 47 e1 7a 16 40
       4.23 5.62
0005d0 7b 14 ae 47 e1 7a 1b 40 5c 8f c2 f5 28 5c 1f 40
       6.87 7.84
0005e0 66 66 66 66 66 66 20 40 e1 7a 14 ae 47 e1 1e 40
       8.2 7.72
0005f0 e1 7a 14 ae 47 e1 19 40 5c 8f c2 f5 28 5c 13 40
       6.47 4.84
000600 29 5c 8f c2 f5 28 0a 40 7b 14 ae 47 e1 7a 00 40
       3.27 2.06
000610 e1 7a 14 ae 47 e1 f2 3f 66 66 66 66 66 66 d6 3f
       1.18 0.35
000620 48 e1 7a 14 ae 47 e9 bf 33 33 33 33 33 33 03 c0
       -0.79 -2.4
000630 7b 14 ae 47 e1 7a 11 c0 9a 99 99 99 99 99 19 c0
       -4.37 -6.4
000640 85 eb 51 b8 1e 85 20 c0 5c 8f c2 f5 28 dc 23 c0
       -8.26 -9.93
000650 5c 8f c2 f5 28 5c 27 c0 c3 f5 28 5c 8f c2 2b c0
       -11.68 -13.88
000660 5c 8f c2 f5 28 dc 30 c0 ae 47 e1 7a 14 ae 34 c0
       -16.86 -20.68
000670 00 00 00 00 00 00 39 c0 29 5c 8f c2 f5 28 3d c0
       -25.0 -29.16
000680 e1 7a 14 ae 47 21 40 c0 d7 a3 70 3d 0a b7 40 c0
       -32.26 -33.43
000690 48 e1 7a 14 ae 07 40 c0 a4 70 3d 0a d7 23 3c c0
       -32.06 -28.14
0006a0 b8 1e 85 eb 51 38 36 c0 33 33 33 33 33 b3 2e c0
       -22.22 -15.35
0006b0 e1 7a 14 ae 47 61 21 c0 cd cc cc cc cc cc 08 c0
       -8.69 -3.1
0006c0 7b 14 ae 47 e1 7a f0 3f e1 7a 14 ae 47 e1 0e 40
       1.03 3.86
0006d0 29 5c 8f c2 f5 28 17 40 ae 47 e1 7a 14 ae 1c 40
       5.79 7.17
0006e0 cd cc cc cc cc 4c 20 40 cd cc cc cc cc 4c 21 40
       8.15 8.65
0006f0 9a 99 99 99 99 19 21 40 33 33 33 33 33 33 1f 40
       8.55 7.8
000700 00 00 00 00 00 00 1a 40 b8 1e 85 eb 51 b8 13 40
       6.5 4.93
000710 66 66 66 66 66 66 0a 40 f6 28 5c 8f c2 f5 fc 3f
       3.3 1.81
000720 b8 1e 85 eb 51 b8 de 3f 5c 8f c2 f5 28 5c e7 bf
       0.48 -0.73
000730 33 33 33 33 33 33 ff bf 14 ae 47 e1 7a 14 0a c0
       -1.95 -3.26
000740 ae 47 e1 7a 14 ae 12 c0 ae 47 e1 7a 14 ae 18 c0
       -4.67 -6.17
000750 29 5c 8f c2 f5 28 1f c0 48 e1 7a 14 ae 47 23 c0
       -7.79 -9.64
000760 f6 28 5c 8f c2 f5 27 c0 c3 f5 28 5c 8f 42 2e c0
       -11.98 -15.13
000770 9a 99 99 99 99 59 33 c0 5c 8f c2 f5 28 9c 38 c0
       -19.35 -24.61
000780 0a d7 a3 70 3d 8a 3e c0 29 5c 8f c2 f5 28 42 c0
       -30.54 -36.32
000790 ec 51 b8 1e 85 6b 44 c0 5c 8f c2 f5 28 7c 45 c0
       -40.84 -42.97
0007a0 f6 28 5c 8f c2 f5 44 c0 cd cc cc cc cc cc 42 c0
       -41.92 -37.6
0007b0 1f 85 eb 51 b8 9e 3e c0 ae 47 e1 7a 14 2e 36 c0
       -30.62 -22.18
0007c0 3d 0a d7 a3 70 3d 2b c0 e1 7a 14 ae 47 e1 17 c0
       -13.62 -5.97
0007d0 1f 85 eb 51 b8 1e d5 3f 7b 14 ae 47 e1 7a 15 40
       0.33 5.37
0007e0 00 00 00 00 00 00 23 40 d7 a3 70 3d 0a d7 29 40
       9.5 12.92
0007f0 9a 99 99 99 99 19 2f 40 1f 85 eb 51 b8 1e 31 40
       15.55 17.12
