bvpsGT_w10_s1_T3_10.npy (npy, 92288 bytes, 1 tensors)

array f8 [1, 11520]
000000 b8 1e 85 eb 51 38 3f 40 b8 1e 85 eb 51 b8 41 40
       31.22 35.44
000010 33 33 33 33 33 f3 44 40 cd cc cc cc cc ec 48 40
       41.9 49.85
000020 8f c2 f5 28 5c 2f 4d 40 b8 1e 85 eb 51 a8 50 40
       58.37 66.63
000030 1f 85 eb 51 b8 7e 52 40 7b 14 ae 47 e1 fa 53 40
       73.98 79.92
000040 14 ae 47 e1 7a 04 55 40 00 00 00 00 00 90 55 40
       84.07 86.25
000050 e1 7a 14 ae 47 a1 55 40 1f 85 eb 51 b8 4e 55 40
       86.52 85.23
000060 29 5c 8f c2 f5 b8 54 40 a4 70 3d 0a d7 f3 53 40
       82.89 79.81
000070 3d 0a d7 a3 70 ed 52 40 33 33 33 33 33 63 51 40
       75.71 69.55
000080 7b 14 ae 47 e1 da 4d 40 48 e1 7a 14 ae 47 46 40
       59.71 44.56
000090 f6 28 5c 8f c2 35 37 40 ae 47 e1 7a 14 ae 0f c0
       23.21 -3.96
0000a0 ae 47 e1 7a 14 8e 41 c0 f6 28 5c 8f c2 d5 50 c0
       -35.11 -67.34
0000b0 9a 99 99 99 99 59 58 c0 0a d7 a3 70 3d 9a 5e c0
       -97.4 -122.41
0000c0 e1 7a 14 ae 47 91 61 c0 d7 a3 70 3d 0a e7 62 c0
       -140.54 -151.22
0000d0 3d 0a d7 a3 70 65 63 c0 7b 14 ae 47 e1 42 63 c0
       -155.17 -154.09
0000e0 cd cc cc cc cc c4 62 c0 66 66 66 66 66 2e 62 c0
       -150.15 -145.45
0000f0 c3 f5 28 5c 8f b2 61 c0 71 3d 0a d7 a3 68 61 c0
       -141.58 -139.27
000100 3d 0a d7 a3 70 4d 61 c0 c3 f5 28 5c 8f 4a 61 c0
       -138.42 -138.33
000110 9a 99 99 99 99 41 61 c0 0a d7 a3 70 3d 1a 61 c0
       -138.05 -136.82
000120 52 b8 1e 85 eb c9 60 c0 d7 a3 70 3d 0a 57 60 c0
       -134.31 -130.72
000130 b8 1e 85 eb 51 a8 5f c0 5c 8f c2 f5 28 ac 5e c0
       -126.63 -122.69
000140 48 e1 7a 14 ae d7 5d c0 f6 28 5c 8f c2 25 5d c0
       -119.37 -116.59
000150 1f 85 eb 51 b8 6e 5c c0 5c 8f c2 f5 28 6c 5b c0
       -113.73 -109.69
000160 ec 51 b8 1e 85 cb 59 c0 71 3d 0a d7 a3 40 57 c0
       -103.18 -93.01
000170 14 ae 47 e1 7a 94 53 c0 9a 99 99 99 99 59 4d c0
       -78.32 -58.7
000180 8f c2 f5 28 5c 0f 41 c0 0a d7 a3 70 3d 0a 14 c0
       -34.12 -5.01
000190 8f c2 f5 28 5c cf 3b 40 c3 f5 28 5c 8f 82 4f 40
       27.81 63.02
0001a0 b8 1e 85 eb 51 b8 58 40 48 e1 7a 14 ae a7 60 40
       98.88 133.24
0001b0 8f c2 f5 28 5c 77 64 40 8f c2 f5 28 5c 87 67 40
       163.73 188.23
0001c0 66 66 66 66 66 a6 69 40 b8 1e 85 eb 51 c0 6a 40
       205.2 214.01
0001d0 71 3d 0a d7 a3 e0 6a 40 a4 70 3d 0a d7 2b 6a 40
       215.02 209.37
0001e0 7b 14 ae 47 e1 d2 68 40 48 e1 7a 14 ae 07 67 40
       198.59 184.24
0001f0 00 00 00 00 00 f8 64 40 29 5c 8f c2 f5 c8 62 40
       167.75 150.28
000200 c3 f5 28 5c 8f 9a 60 40 85 eb 51 b8 1e 05 5d 40
       132.83 116.08
000210 8f c2 f5 28 5c 1f 59 40 b8 1e 85 eb 51 98 55 40
       100.49 86.38
000220 9a 99 99 99 99 89 52 40 b8 1e 85 eb 51 18 50 40
       74.15 64.38
000230 85 eb 51 b8 1e e5 4c 40 d7 a3 70 3d 0a 77 4b 40
       57.79 54.93
000240 e1 7a 14 ae 47 e1 4b 40 c3 f5 28 5c 8f c2 4d 40
       55.76 59.52
000250 71 3d 0a d7 a3 40 50 40 d7 a3 70 3d 0a c7 51 40
       65.01 71.11
000260 a4 70 3d 0a d7 53 53 40 f6 28 5c 8f c2 f5 54 40
       77.31 83.84
000270 29 5c 8f c2 f5 d8 56 40 52 b8 1e 85 eb 21 59 40
       91.39 100.53
000280 e1 7a 14 ae 47 d1 5b 40 14 ae 47 e1 7a b4 5e 40
       111.27 122.82
000290 a4 70 3d 0a d7 b3 60 40 b8 1e 85 eb 51 b8 61 40
       133.62 141.76
0002a0 a4 70 3d 0a d7 2b 62 40 00 00 00 00 00 e0 61 40
       145.37 143.0
0002b0 d7 a3 70 3d 0a bf 60 40 52 b8 1e 85 eb a1 5d 40
       133.97 118.53
0002c0 ec 51 b8 1e 85 6b 58 40 48 e1 7a 14 ae 37 52 40
       97.68 72.87
0002d0 a4 70 3d 0a d7 c3 46 40 a4 70 3d 0a d7 e3 30 40
       45.53 16.89
0002e0 a4 70 3d 0a d7 23 28 c0 ae 47 e1 7a 14 2e 44 c0
       -12.07 -40.36
0002f0 5c 8f c2 f5 28 bc 50 c0 71 3d 0a d7 a3 b0 56 c0
       -66.94 -90.76
000300 5c 8f c2 f5 28 bc 5b c0 7b 14 ae 47 e1 ca 5f c0
       -110.94 -127.17
000310 8f c2 f5 28 5c 77 61 c0 00 00 00 00 00 a8 62 c0
       -139.73 -149.25
000320 14 ae 47 e1 7a 8c 63 c0 66 66 66 66 66 2e 64 c0
       -156.39 -161.45
000330 9a 99 99 99 99 89 64 c0 00 00 00 00 00 98 64 c0
       -164.3 -164.75
000340 0a d7 a3 70 3d 62 64 c0 ec 51 b8 1e 85 0b 64 c0
       -163.07 -160.36
000350 0a d7 a3 70 3d d2 63 c0 5c 8f c2 f5 28 fc 63 c0
       -158.57 -159.88
000360 0a d7 a3 70 3d c2 64 c0 33 33 33 33 33 3b 66 c0
       -166.07 -177.85
000370 3d 0a d7 a3 70 55 68 c0 9a 99 99 99 99 d9 6a c0
       -194.67 -214.8
000380 e1 7a 14 ae 47 79 6d c0 ec 51 b8 1e 85 db 6f c0
       -235.79 -254.86
000390 f6 28 5c 8f c2 d5 70 c0 a4 70 3d 0a d7 53 71 c0
       -269.36 -277.24
0003a0 66 66 66 66 66 56 71 c0 66 66 66 66 66 de 70 c0
       -277.4 -269.9
0003b0 14 ae 47 e1 7a fc 6f c0 c3 f5 28 5c 8f a2 6d c0
       -255.89 -237.08
0003c0 c3 f5 28 5c 8f e2 6a c0 00 00 00 00 00 e0 67 c0
       -215.08 -191.0
0003d0 f6 28 5c 8f c2 ad 64 c0 29 5c 8f c2 f5 58 61 c0
       -165.43 -138.78
0003e0 c3 f5 28 5c 8f f2 5b c0 1f 85 eb 51 b8 5e 55 c0
       -111.79 -85.48
0003f0 a4 70 3d 0a d7 83 4e c0 29 5c 8f c2 f5 a8 43 c0
       -61.03 -39.32
000400 f6 28 5c 8f c2 b5 34 c0 52 b8 1e 85 eb 51 14 c0
       -20.71 -5.08
000410 85 eb 51 b8 1e 85 1f 40 1f 85 eb 51 b8 9e 32 40
       7.88 18.62
000420 71 3d 0a d7 a3 b0 3b 40 00 00 00 00 00 e0 41 40
       27.69 35.75
000430 52 b8 1e 85 eb d1 45 40 a4 70 3d 0a d7 03 4a 40
       43.64 52.03
000440 14 ae 47 e1 7a 94 4e 40 29 5c 8f c2 f5 a8 51 40
       61.16 70.64
000450 48 e1 7a 14 ae e7 53 40 48 e1 7a 14 ae c7 55 40
       79.62 87.12
000460 9a 99 99 99 99 19 57 40 1f 85 eb 51 b8 ce 57 40
       92.4 95.23
000470 71 3d 0a d7 a3 f0 57 40 52 b8 1e 85 eb a1 57 40
       95.76 94.53
000480 00 00 00 00 00 10 57 40 d7 a3 70 3d 0a 67 56 40
       92.25 89.61
000490 00 00 00 00 00 d0 55 40 66 66 66 66 66 66 55 40
       87.25 85.6
0004a0 66 66 66 66 66 36 55 40 ae 47 e1 7a 14 3e 55 40
       84.85 84.97
0004b0 8f c2 f5 28 5c 6f 55 40 52 b8 1e 85 eb b1 55 40
       85.74 86.78
0004c0 5c 8f c2 f5 28 ec 55 40 5c 8f c2 f5 28 fc 55 40
       87.69 87.94
0004d0 3d 0a d7 a3 70 bd 55 40 00 00 00 00 00 10 55 40
       86.96 84.25
0004e0 1f 85 eb 51 b8 de 53 40 7b 14 ae 47 e1 2a 52 40
       79.48 72.67
0004f0 00 00 00 00 00 10 50 40 9a 99 99 99 99 79 4b 40
       64.25 54.95
000500 ec 51 b8 1e 85 cb 46 40 b8 1e 85 eb 51 78 42 40
       45.59 36.94
000510 c3 f5 28 5c 8f 82 3d 40 85 eb 51 b8 1e 85 37 40
       29.51 23.52
000520 f6 28 5c 8f c2 f5 32 40 14 ae 47 e1 7a 14 2f 40
       18.96 15.54
000530 b8 1e 85 eb 51 b8 29 40 c3 f5 28 5c 8f c2 24 40
       12.86 10.38
000540 7b 14 ae 47 e1 7a 1e 40 00 00 00 00 00 00 11 40
       7.62 4.25
000550 0a d7 a3 70 3d 0a c7 3f ae 47 e1 7a 14 ae 11 c0
       0.18 -4.42
000560 85 eb 51 b8 1e 85 22 c0 9a 99 99 99 99 19 2c c0
       -9.26 -14.05
000570 14 ae 47 e1 7a 94 32 c0 c3 f5 28 5c 8f c2 36 c0
       -18.58 -22.76
000580 c3 f5 28 5c 8f 82 3a c0 52 b8 1e 85 eb d1 3d c0
       -26.51 -29.82
000590 71 3d 0a d7 a3 50 40 c0 b8 1e 85 eb 51 78 41 c0
       -32.63 -34.94
0005a0 85 eb 51 b8 1e 65 42 c0 8f c2 f5 28 5c 2f 43 c0
       -36.79 -38.37
0005b0 33 33 33 33 33 f3 43 c0 29 5c 8f c2 f5 c8 44 c0
       -39.9 -41.57
0005c0 c3 f5 28 5c 8f c2 45 c0 d7 a3 70 3d 0a d7 46 c0
       -43.52 -45.68
0005d0 1f 85 eb 51 b8 fe 47 c0 ec 51 b8 1e 85 2b 49 c0
       -47.99 -50.34
0005e0 b8 1e 85 eb 51 58 4a c0 00 00 00 00 00 80 4b c0
       -52.69 -55.0
0005f0 85 eb 51 b8 1e 85 4c c0 0a d7 a3 70 3d 2a 4d c0
       -57.04 -58.33
000600 9a 99 99 99 99 19 4d c0 33 33 33 33 33 f3 4b c0
       -58.2 -55.9
000610 b8 1e 85 eb 51 78 49 c0 c3 f5 28 5c 8f a2 45 c0
       -50.94 -43.27
000620 14 ae 47 e1 7a b4 40 c0 00 00 00 00 00 40 36 c0
       -33.41 -22.25
000630 ae 47 e1 7a 14 ae 25 c0 7b 14 ae 47 e1 7a b4 bf
       -10.84 -0.08
000640 f6 28 5c 8f c2 f5 22 40 1f 85 eb 51 b8 9e 31 40
       9.48 17.62
000650 52 b8 1e 85 eb 51 38 40 29 5c 8f c2 f5 a8 3d 40
       24.32 29.66
000660 14 ae 47 e1 7a d4 40 40 8f c2 f5 28 5c 2f 42 40
       33.66 36.37
000670 cd cc cc cc cc ec 42 40 1f 85 eb 51 b8 1e 43 40
       37.85 38.24
000680 ec 51 b8 1e 85 eb 42 40 1f 85 eb 51 b8 7e 42 40
       37.84 36.99
000690 a4 70 3d 0a d7 03 42 40 14 ae 47 e1 7a 94 41 40
       36.03 35.16
0006a0 3d 0a d7 a3 70 3d 41 40 71 3d 0a d7 a3 f0 40 40
       34.48 33.88
0006b0 85 eb 51 b8 1e a5 40 40 ae 47 e1 7a 14 4e 40 40
       33.29 32.61
0006c0 cd cc cc cc cc cc 3f 40 cd cc cc cc cc cc 3e 40
       31.8 30.8
0006d0 f6 28 5c 8f c2 75 3d 40 d7 a3 70 3d 0a 97 3b 40
       29.46 27.59
0006e0 7b 14 ae 47 e1 fa 38 40 c3 f5 28 5c 8f 82 35 40
       24.98 21.51
0006f0 85 eb 51 b8 1e 45 31 40 7b 14 ae 47 e1 fa 28 40
       17.27 12.49
000700 00 00 00 00 00 00 1e 40 3d 0a d7 a3 70 3d 04 40
       7.5 2.53
000710 b8 1e 85 eb 51 b8 02 c0 ec 51 b8 1e 85 eb 1c c0
       -2.34 -7.23
000720 33 33 33 33 33 b3 28 c0 a4 70 3d 0a d7 e3 31 c0
       -12.35 -17.89
000730 14 ae 47 e1 7a d4 37 c0 71 3d 0a d7 a3 f0 3d c0
       -23.83 -29.94
000740 d7 a3 70 3d 0a d7 41 c0 29 5c 8f c2 f5 28 44 c0
       -35.68 -40.32
000750 a4 70 3d 0a d7 83 45 c0 8f c2 f5 28 5c 8f 45 c0
       -43.03 -43.12
000760 7b 14 ae 47 e1 1a 44 c0 14 ae 47 e1 7a 34 41 c0
       -40.21 -34.41
000770 ae 47 e1 7a 14 6e 3a c0 a4 70 3d 0a d7 63 31 c0
       -26.43 -17.39
000780 29 5c 8f c2 f5 28 21 c0 a4 70 3d 0a d7 a3 f0 bf
       -8.58 -1.04
000790 66 66 66 66 66 66 12 40 71 3d 0a d7 a3 70 20 40
       4.6 8.22
0007a0 33 33 33 33 33 33 24 40 e1 7a 14 ae 47 61 25 40
       10.1 10.69
0007b0 d7 a3 70 3d 0a d7 24 40 cd cc cc cc cc 4c 23 40
       10.42 9.65
0007c0 66 66 66 66 66 66 21 40 71 3d 0a d7 a3 70 1f 40
       8.7 7.86
0007d0 7b 14 ae 47 e1 7a 1d 40 66 66 66 66 66 66 1d 40
       7.37 7.35
0007e0 c3 f5 28 5c 8f c2 1e 40 a4 70 3d 0a d7 23 20 40
       7.69 8.07
0007f0 c3 f5 28 5c 8f 42 20 40 a4 70 3d 0a d7 a3 1e 40
       8.13 7.66
