notebooks_SVD_vs_TSVD/bvpsGT_w10_s4_T2_35.npy (npy, 92288 bytes, 1 tensors)

array f8 [1, 11520]
000000 3d 0a d7 a3 70 3d 54 c0 33 33 33 33 33 73 53 c0
       -80.96 -77.8
000010 9a 99 99 99 99 79 52 c0 33 33 33 33 33 43 51 c0
       -73.9 -69.05
000020 cd cc cc cc cc ac 4f c0 cd cc cc cc cc 8c 4c c0
       -63.35 -57.1
000030 d7 a3 70 3d 0a 57 49 c0 b8 1e 85 eb 51 38 46 c0
       -50.68 -44.44
000040 cd cc cc cc cc 4c 43 c0 3d 0a d7 a3 70 9d 40 c0
       -38.6 -33.23
000050 48 e1 7a 14 ae 47 3c c0 5c 8f c2 f5 28 9c 37 c0
       -28.28 -23.61
000060 85 eb 51 b8 1e 05 33 c0 cd cc cc cc cc cc 2c c0
       -19.02 -14.4
000070 9a 99 99 99 99 99 23 c0 d7 a3 70 3d 0a d7 15 c0
       -9.8 -5.46
000080 a4 70 3d 0a d7 a3 fc bf f6 28 5c 8f c2 f5 e8 3f
       -1.79 0.78
000090 ae 47 e1 7a 14 ae ff 3f 29 5c 8f c2 f5 28 fc 3f
       1.98 1.76
0000a0 f6 28 5c 8f c2 f5 d8 3f d7 a3 70 3d 0a d7 fb bf
       0.39 -1.74
0000b0 5c 8f c2 f5 28 5c 11 c0 66 66 66 66 66 66 1d c0
       -4.34 -7.35
0000c0 8f c2 f5 28 5c 0f 26 c0 29 5c 8f c2 f5 a8 2f c0
       -11.03 -15.83
0000d0 66 66 66 66 66 26 36 c0 66 66 66 66 66 26 3e c0
       -22.15 -30.15
0000e0 85 eb 51 b8 1e c5 43 c0 e1 7a 14 ae 47 c1 48 c0
       -39.54 -49.51
0000f0 1f 85 eb 51 b8 5e 4d c0 29 5c 8f c2 f5 68 50 c0
       -58.74 -65.64
000100 1f 85 eb 51 b8 2e 51 c0 3d 0a d7 a3 70 bd 50 c0
       -68.73 -66.96
000110 52 b8 1e 85 eb 11 4e c0 a4 70 3d 0a d7 83 48 c0
       -60.14 -49.03
000120 8f c2 f5 28 5c 8f 41 c0 7b 14 ae 47 e1 3a 34 c0
       -35.12 -20.23
000130 29 5c 8f c2 f5 28 18 c0 00 00 00 00 00 00 19 40
       -6.04 6.25
000140 1f 85 eb 51 b8 1e 30 40 85 eb 51 b8 1e 85 37 40
       16.12 23.52
000150 00 00 00 00 00 c0 3c 40 5c 8f c2 f5 28 1c 40 40
       28.75 32.22
000160 8f c2 f5 28 5c 2f 41 40 a4 70 3d 0a d7 c3 41 40
       34.37 35.53
000170 e1 7a 14 ae 47 01 42 40 00 00 00 00 00 00 42 40
       36.01 36.0
000180 8f c2 f5 28 5c cf 41 40 1f 85 eb 51 b8 7e 41 40
       35.62 34.99
000190 5c 8f c2 f5 28 1c 41 40 52 b8 1e 85 eb b1 40 40
       34.22 33.39
0001a0 48 e1 7a 14 ae 47 40 40 b8 1e 85 eb 51 b8 3f 40
       32.56 31.72
0001b0 8f c2 f5 28 5c cf 3e 40 f6 28 5c 8f c2 b5 3d 40
       30.81 29.71
0001c0 48 e1 7a 14 ae 47 3c 40 66 66 66 66 66 66 3a 40
       28.28 26.4
0001d0 ae 47 e1 7a 14 ee 37 40 c3 f5 28 5c 8f c2 34 40
       23.93 20.76
0001e0 8f c2 f5 28 5c cf 30 40 1f 85 eb 51 b8 1e 28 40
       16.81 12.06
0001f0 71 3d 0a d7 a3 70 1a 40 14 ae 47 e1 7a 14 e6 3f
       6.61 0.69
000200 d7 a3 70 3d 0a d7 15 c0 3d 0a d7 a3 70 3d 27 c0
       -5.46 -11.62
000210 c3 f5 28 5c 8f c2 31 c0 14 ae 47 e1 7a 14 38 c0
       -17.76 -24.08
000220 33 33 33 33 33 f3 3e c0 7b 14 ae 47 e1 5a 43 c0
       -30.95 -38.71
000230 66 66 66 66 66 a6 47 c0 0a d7 a3 70 3d 0a 4c c0
       -47.3 -56.08
000240 3d 0a d7 a3 70 dd 4f c0 00 00 00 00 00 20 51 c0
       -63.73 -68.5
000250 c3 f5 28 5c 8f 32 51 c0 f6 28 5c 8f c2 d5 4f c0
       -68.79 -63.67
000260 0a d7 a3 70 3d aa 4a c0 66 66 66 66 66 86 43 c0
       -53.33 -39.05
000270 cd cc cc cc cc cc 36 c0 85 eb 51 b8 1e 85 1a c0
       -22.8 -6.63
000280 85 eb 51 b8 1e 85 1f 40 5c 8f c2 f5 28 dc 33 40
       7.88 19.86
000290 cd cc cc cc cc 0c 3d 40 8f c2 f5 28 5c cf 41 40
       29.05 35.62
0002a0 66 66 66 66 66 e6 43 40 ae 47 e1 7a 14 ee 44 40
       39.8 41.86
0002b0 8f c2 f5 28 5c 0f 45 40 e1 7a 14 ae 47 81 44 40
       42.12 41.01
0002c0 ae 47 e1 7a 14 8e 43 40 3d 0a d7 a3 70 7d 42 40
       39.11 36.98
0002d0 8f c2 f5 28 5c 8f 41 40 3d 0a d7 a3 70 dd 40 40
       35.12 33.73
0002e0 ec 51 b8 1e 85 6b 40 40 85 eb 51 b8 1e 25 40 40
       32.84 32.29
0002f0 a4 70 3d 0a d7 e3 3f 40 3d 0a d7 a3 70 7d 3f 40
       31.89 31.49
000300 b8 1e 85 eb 51 f8 3e 40 33 33 33 33 33 33 3e 40
       30.97 30.2
000310 00 00 00 00 00 00 3d 40 a4 70 3d 0a d7 23 3b 40
       29.0 27.14
000320 33 33 33 33 33 73 38 40 52 b8 1e 85 eb d1 34 40
       24.45 20.82
000330 1f 85 eb 51 b8 5e 30 40 48 e1 7a 14 ae c7 26 40
       16.37 11.39
000340 1f 85 eb 51 b8 1e 19 40 85 eb 51 b8 1e 85 f7 3f
       6.28 1.47
000350 29 5c 8f c2 f5 28 06 c0 a4 70 3d 0a d7 a3 19 c0
       -2.77 -6.41
000360 14 ae 47 e1 7a 94 23 c0 29 5c 8f c2 f5 28 2b c0
       -9.79 -13.58
000370 8f c2 f5 28 5c 8f 32 c0 14 ae 47 e1 7a 54 39 c0
       -18.56 -25.33
000380 0a d7 a3 70 3d ea 40 c0 14 ae 47 e1 7a 94 45 c0
       -33.83 -43.16
000390 48 e1 7a 14 ae c7 49 c0 71 3d 0a d7 a3 70 4c c0
       -51.56 -56.88
0003a0 a4 70 3d 0a d7 a3 4c c0 33 33 33 33 33 f3 49 c0
       -57.28 -51.9
0003b0 c3 f5 28 5c 8f a2 44 c0 8f c2 f5 28 5c 0f 3b c0
       -41.27 -27.06
0003c0 1f 85 eb 51 b8 1e 27 c0 f6 28 5c 8f c2 f5 08 40
       -11.56 3.12
0003d0 3d 0a d7 a3 70 3d 2f 40 48 e1 7a 14 ae 87 39 40
       15.62 25.53
0003e0 29 5c 8f c2 f5 88 40 40 3d 0a d7 a3 70 5d 43 40
       33.07 38.73
0003f0 85 eb 51 b8 1e 65 45 40 e1 7a 14 ae 47 a1 46 40
       42.79 45.26
000400 33 33 33 33 33 f3 46 40 29 5c 8f c2 f5 48 46 40
       45.9 44.57
000410 d7 a3 70 3d 0a b7 44 40 a4 70 3d 0a d7 83 42 40
       41.43 37.03
000420 14 ae 47 e1 7a 14 40 40 ec 51 b8 1e 85 ab 3b 40
       32.16 27.67
000430 d7 a3 70 3d 0a 57 38 40 71 3d 0a d7 a3 b0 36 40
       24.34 22.69
000440 48 e1 7a 14 ae 07 37 40 52 b8 1e 85 eb 51 39 40
       23.03 25.32
000450 3d 0a d7 a3 70 fd 3c 40 71 3d 0a d7 a3 70 40 40
       28.99 32.88
000460 ec 51 b8 1e 85 ab 41 40 f6 28 5c 8f c2 55 41 40
       35.34 34.67
000470 ae 47 e1 7a 14 ee 3d 40 ae 47 e1 7a 14 6e 35 40
       29.93 21.43
000480 48 e1 7a 14 ae c7 25 40 f6 28 5c 8f c2 f5 e8 3f
       10.89 0.78
000490 a4 70 3d 0a d7 a3 1a c0 29 5c 8f c2 f5 28 25 c0
       -6.66 -10.58
0004a0 66 66 66 66 66 e6 27 c0 1f 85 eb 51 b8 9e 2a c0
       -11.95 -13.31
0004b0 ec 51 b8 1e 85 eb 31 c0 c3 f5 28 5c 8f c2 3c c0
       -17.92 -28.76
0004c0 33 33 33 33 33 d3 47 c0 7b 14 ae 47 e1 aa 52 c0
       -47.65 -74.67
0004d0 00 00 00 00 00 f0 5a c0 14 ae 47 e1 7a d4 61 c0
       -107.75 -142.64
0004e0 5c 8f c2 f5 28 ac 65 c0 00 00 00 00 00 30 68 c0
       -173.38 -193.5
0004f0 66 66 66 66 66 b6 68 c0 cd cc cc cc cc f4 66 c0
       -197.7 -183.65
000500 8f c2 f5 28 5c 1f 63 c0 5c 8f c2 f5 28 cc 5b c0
       -152.98 -111.19
000510 ec 51 b8 1e 85 9b 50 c0 cd cc cc cc cc 8c 3b c0
       -66.43 -27.55
000520 33 33 33 33 33 33 ff bf f6 28 5c 8f c2 f5 18 40
       -1.95 6.24
000530 14 ae 47 e1 7a 14 06 c0 14 ae 47 e1 7a 54 38 c0
       -2.76 -24.33
000540 85 eb 51 b8 1e 65 49 c0 71 3d 0a d7 a3 70 52 c0
       -50.79 -73.76
000550 f6 28 5c 8f c2 b5 55 c0 48 e1 7a 14 ae e7 55 c0
       -86.84 -87.62
000560 ae 47 e1 7a 14 7e 53 c0 33 33 33 33 33 53 4f c0
       -77.97 -62.65
000570 33 33 33 33 33 73 47 c0 1f 85 eb 51 b8 1e 41 c0
       -46.9 -34.24
000580 0a d7 a3 70 3d 8a 39 c0 ae 47 e1 7a 14 6e 33 c0
       -25.54 -19.43
000590 48 e1 7a 14 ae 47 2b c0 33 33 33 33 33 33 19 c0
       -13.64 -6.3
0005a0 a4 70 3d 0a d7 a3 0a 40 9a 99 99 99 99 99 2d 40
       3.33 14.8
0005b0 d7 a3 70 3d 0a d7 3a 40 48 e1 7a 14 ae e7 42 40
       26.84 37.81
0005c0 ae 47 e1 7a 14 0e 47 40 e1 7a 14 ae 47 41 49 40
       46.11 50.51
0005d0 0a d7 a3 70 3d 2a 49 40 cd cc cc cc cc cc 46 40
       50.33 45.6
0005e0 5c 8f c2 f5 28 7c 42 40 5c 8f c2 f5 28 9c 39 40
       36.97 25.61
0005f0 33 33 33 33 33 33 2a 40 85 eb 51 b8 1e 85 f3 3f
       13.1 1.22
000600 cd cc cc cc cc cc 20 c0 ec 51 b8 1e 85 6b 2d c0
       -8.4 -14.71
000610 a4 70 3d 0a d7 a3 31 c0 cd cc cc cc cc 0c 32 c0
       -17.64 -18.05
000620 7b 14 ae 47 e1 3a 31 c0 66 66 66 66 66 26 30 c0
       -17.23 -16.15
000630 8f c2 f5 28 5c 8f 2d c0 a4 70 3d 0a d7 23 28 c0
       -14.78 -12.07
000640 52 b8 1e 85 eb 51 1a c0 cd cc cc cc cc cc 04 40
       -6.58 2.6
000650 b8 1e 85 eb 51 b8 2e 40 33 33 33 33 33 73 3e 40
       15.36 30.45
000660 0a d7 a3 70 3d 0a 47 40 8f c2 f5 28 5c 4f 4e 40
       46.08 60.62
000670 ae 47 e1 7a 14 3e 52 40 9a 99 99 99 99 a9 54 40
       72.97 82.65
000680 ae 47 e1 7a 14 5e 56 40 14 ae 47 e1 7a 54 57 40
       89.47 93.32
000690 66 66 66 66 66 86 57 40 0a d7 a3 70 3d fa 56 40
       94.1 91.91
0006a0 ae 47 e1 7a 14 ce 55 40 5c 8f c2 f5 28 3c 54 40
       87.22 80.94
0006b0 ec 51 b8 1e 85 8b 52 40 1f 85 eb 51 b8 fe 50 40
       74.18 67.98
0006c0 00 00 00 00 00 80 4f 40 0a d7 a3 70 3d aa 4d 40
       63.0 59.33
0006d0 ec 51 b8 1e 85 4b 4c 40 52 b8 1e 85 eb 11 4b 40
       56.59 54.14
0006e0 d7 a3 70 3d 0a b7 49 40 d7 a3 70 3d 0a 17 48 40
       51.43 48.18
0006f0 f6 28 5c 8f c2 35 46 40 33 33 33 33 33 33 44 40
       44.42 40.4
000700 ae 47 e1 7a 14 2e 42 40 33 33 33 33 33 33 40 40
       36.36 32.4
000710 ae 47 e1 7a 14 6e 3c 40 52 b8 1e 85 eb 51 38 40
       28.43 24.32
000720 9a 99 99 99 99 19 34 40 5c 8f c2 f5 28 dc 2f 40
       20.1 15.93
000730 ae 47 e1 7a 14 2e 28 40 71 3d 0a d7 a3 70 21 40
       12.09 8.72
000740 5c 8f c2 f5 28 5c 16 40 5c 8f c2 f5 28 5c 01 40
       5.59 2.17
000750 33 33 33 33 33 33 01 c0 48 e1 7a 14 ae 47 1e c0
       -2.15 -7.57
000760 1f 85 eb 51 b8 1e 2b c0 14 ae 47 e1 7a d4 32 c0
       -13.56 -18.83
000770 71 3d 0a d7 a3 b0 35 c0 f6 28 5c 8f c2 b5 34 c0
       -21.69 -20.71
000780 0a d7 a3 70 3d 8a 2e c0 29 5c 8f c2 f5 28 17 c0
       -15.27 -5.79
000790 7b 14 ae 47 e1 7a 19 40 1f 85 eb 51 b8 5e 33 40
       6.37 19.37
0007a0 cd cc cc cc cc 4c 3f 40 33 33 33 33 33 53 44 40
       31.3 40.65
0007b0 33 33 33 33 33 33 47 40 48 e1 7a 14 ae 07 48 40
       46.4 48.06
0007c0 9a 99 99 99 99 d9 46 40 71 3d 0a d7 a3 f0 43 40
       45.7 39.88
0007d0 8f c2 f5 28 5c 8f 3f 40 7b 14 ae 47 e1 fa 35 40
       31.56 21.98
0007e0 d7 a3 70 3d 0a d7 28 40 3d 0a d7 a3 70 3d 10 40
       12.42 4.06
0007f0 c3 f5 28 5c 8f c2 01 c0 b8 1e 85 eb 51 b8 17 c0
       -2.22 -5.93
