notebooks_SVD_vs_TSVD/bvpsGT_w10_s3_T3_30.npy (npy, 92288 bytes, 1 tensors)

array f8 [1, 11520]
000000 48 e1 7a 14 ae c7 26 c0 a4 70 3d 0a d7 a3 25 c0
       -11.39 -10.82
000010 85 eb 51 b8 1e 05 24 c0 8f c2 f5 28 5c 8f 22 c0
       -10.01 -9.28
000020 ec 51 b8 1e 85 eb 21 c0 7b 14 ae 47 e1 7a 22 c0
       -8.96 -9.24
000030 00 00 00 00 00 00 24 c0 f6 28 5c 8f c2 f5 25 c0
       -10.0 -10.98
000040 66 66 66 66 66 e6 27 c0 1f 85 eb 51 b8 9e 29 c0
       -11.95 -12.81
000050 29 5c 8f c2 f5 28 2b c0 cd cc cc cc cc 4c 2c c0
       -13.58 -14.15
000060 d7 a3 70 3d 0a 57 2c c0 ae 47 e1 7a 14 2e 2a c0
       -14.17 -13.09
000070 d7 a3 70 3d 0a d7 24 c0 5c 8f c2 f5 28 5c 18 c0
       -10.42 -6.09
000080 85 eb 51 b8 1e 85 e3 bf 66 66 66 66 66 66 14 40
       -0.61 5.1
000090 0a d7 a3 70 3d 0a 24 40 a4 70 3d 0a d7 23 2b 40
       10.02 13.57
0000a0 ec 51 b8 1e 85 6b 2f 40 52 b8 1e 85 eb d1 30 40
       15.71 16.82
0000b0 9a 99 99 99 99 59 31 40 00 00 00 00 00 80 31 40
       17.35 17.5
0000c0 d7 a3 70 3d 0a 17 31 40 b8 1e 85 eb 51 b8 2f 40
       17.09 15.86
0000d0 7b 14 ae 47 e1 7a 2b 40 9a 99 99 99 99 19 26 40
       13.74 11.05
0000e0 e1 7a 14 ae 47 e1 20 40 33 33 33 33 33 33 1a 40
       8.44 6.55
0000f0 9a 99 99 99 99 99 16 40 33 33 33 33 33 33 16 40
       5.65 5.55
000100 ae 47 e1 7a 14 ae 16 40 85 eb 51 b8 1e 85 15 40
       5.67 5.38
000110 52 b8 1e 85 eb 51 11 40 b8 1e 85 eb 51 b8 04 40
       4.33 2.59
000120 00 00 00 00 00 00 e0 3f 7b 14 ae 47 e1 7a f8 bf
       0.5 -1.53
000130 52 b8 1e 85 eb 51 0a c0 66 66 66 66 66 66 13 c0
       -3.29 -4.85
000140 14 ae 47 e1 7a 14 1a c0 cd cc cc cc cc 4c 21 c0
       -6.52 -8.65
000150 f6 28 5c 8f c2 f5 26 c0 8f c2 f5 28 5c 0f 2e c0
       -11.48 -15.03
000160 85 eb 51 b8 1e 05 33 c0 b8 1e 85 eb 51 f8 36 c0
       -19.02 -22.97
000170 ae 47 e1 7a 14 2e 3a c0 e1 7a 14 ae 47 e1 3b c0
       -26.18 -27.88
000180 3d 0a d7 a3 70 7d 3b c0 0a d7 a3 70 3d ca 38 c0
       -27.49 -24.79
000190 29 5c 8f c2 f5 28 34 c0 ec 51 b8 1e 85 eb 2c c0
       -20.16 -14.46
0001a0 0a d7 a3 70 3d 8a 21 c0 d7 a3 70 3d 0a d7 0f c0
       -8.77 -3.98
0001b0 52 b8 1e 85 eb 51 e0 bf 00 00 00 00 00 00 fc 3f
       -0.51 1.75
0001c0 85 eb 51 b8 1e 85 09 40 9a 99 99 99 99 99 10 40
       3.19 4.15
0001d0 e1 7a 14 ae 47 e1 12 40 f6 28 5c 8f c2 f5 12 40
       4.72 4.74
0001e0 0a d7 a3 70 3d 0a 10 40 f6 28 5c 8f c2 f5 04 40
       4.01 2.62
0001f0 ae 47 e1 7a 14 ae ef 3f 8f c2 f5 28 5c 8f d2 bf
       0.99 -0.29
000200 00 00 00 00 00 00 e8 bf 52 b8 1e 85 eb 51 d8 bf
       -0.75 -0.38
000210 c3 f5 28 5c 8f c2 d5 3f 14 ae 47 e1 7a 14 e6 3f
       0.34 0.69
000220 7b 14 ae 47 e1 7a b4 3f b8 1e 85 eb 51 b8 fa bf
       0.08 -1.67
000230 c3 f5 28 5c 8f c2 10 c0 1f 85 eb 51 b8 1e 1b c0
       -4.19 -6.78
000240 9a 99 99 99 99 99 21 c0 66 66 66 66 66 e6 23 c0
       -8.8 -9.95
000250 3d 0a d7 a3 70 bd 24 c0 b8 1e 85 eb 51 38 25 c0
       -10.37 -10.61
000260 85 eb 51 b8 1e 85 26 c0 14 ae 47 e1 7a 94 29 c0
       -11.26 -12.79
000270 48 e1 7a 14 ae c7 2e c0 ec 51 b8 1e 85 eb 32 c0
       -15.39 -18.92
000280 66 66 66 66 66 e6 36 c0 e1 7a 14 ae 47 a1 3a c0
       -22.9 -26.63
000290 00 00 00 00 00 40 3d c0 a4 70 3d 0a d7 e3 3d c0
       -29.25 -29.89
0002a0 c3 f5 28 5c 8f 02 3c c0 66 66 66 66 66 a6 37 c0
       -28.01 -23.65
0002b0 7b 14 ae 47 e1 7a 31 c0 52 b8 1e 85 eb 51 25 c0
       -17.48 -10.66
0002c0 8f c2 f5 28 5c 8f 11 c0 a4 70 3d 0a d7 a3 e0 3f
       -4.39 0.52
0002d0 5c 8f c2 f5 28 5c 0f 40 d7 a3 70 3d 0a d7 18 40
       3.92 6.21
0002e0 d7 a3 70 3d 0a d7 1f 40 29 5c 8f c2 f5 28 23 40
       7.96 9.58
0002f0 0a d7 a3 70 3d 0a 26 40 85 eb 51 b8 1e 05 28 40
       11.02 12.01
000300 66 66 66 66 66 66 28 40 29 5c 8f c2 f5 28 27 40
       12.2 11.58
000310 5c 8f c2 f5 28 dc 24 40 00 00 00 00 00 80 22 40
       10.43 9.25
000320 5c 8f c2 f5 28 dc 20 40 33 33 33 33 33 33 20 40
       8.43 8.1
000330 29 5c 8f c2 f5 28 20 40 14 ae 47 e1 7a 14 20 40
       8.08 8.04
000340 b8 1e 85 eb 51 b8 1e 40 c3 f5 28 5c 8f c2 1b 40
       7.68 6.94
000350 c3 f5 28 5c 8f c2 17 40 e1 7a 14 ae 47 e1 13 40
       5.94 4.97
000360 e1 7a 14 ae 47 e1 10 40 ae 47 e1 7a 14 ae 0d 40
       4.22 3.71
000370 48 e1 7a 14 ae 47 09 40 a4 70 3d 0a d7 a3 00 40
       3.16 2.08
000380 b8 1e 85 eb 51 b8 ae bf 8f c2 f5 28 5c 8f 0c c0
       -0.06 -3.57
000390 d7 a3 70 3d 0a d7 20 c0 14 ae 47 e1 7a 14 2c c0
       -8.42 -14.04
0003a0 b8 1e 85 eb 51 78 33 c0 52 b8 1e 85 eb 91 37 c0
       -19.47 -23.57
0003b0 a4 70 3d 0a d7 63 39 c0 f6 28 5c 8f c2 75 38 c0
       -25.39 -24.46
0003c0 3d 0a d7 a3 70 fd 34 c0 a4 70 3d 0a d7 a3 2f c0
       -20.99 -15.82
0003d0 29 5c 8f c2 f5 28 24 c0 52 b8 1e 85 eb 51 13 c0
       -10.08 -4.83
0003e0 b8 1e 85 eb 51 b8 e6 bf c3 f5 28 5c 8f c2 01 40
       -0.71 2.22
0003f0 1f 85 eb 51 b8 1e 11 40 8f c2 f5 28 5c 8f 17 40
       4.28 5.89
000400 29 5c 8f c2 f5 28 1d 40 3d 0a d7 a3 70 bd 20 40
       7.29 8.37
000410 3d 0a d7 a3 70 bd 21 40 33 33 33 33 33 33 21 40
       8.87 8.6
000420 a4 70 3d 0a d7 a3 1e 40 d7 a3 70 3d 0a d7 19 40
       7.66 6.46
000430 29 5c 8f c2 f5 28 16 40 f6 28 5c 8f c2 f5 14 40
       5.54 5.24
000440 00 00 00 00 00 00 16 40 d7 a3 70 3d 0a d7 17 40
       5.5 5.96
000450 48 e1 7a 14 ae 47 18 40 f6 28 5c 8f c2 f5 15 40
       6.07 5.49
000460 8f c2 f5 28 5c 8f 10 40 3d 0a d7 a3 70 3d 02 40
       4.14 2.28
000470 d7 a3 70 3d 0a d7 d3 3f 8f c2 f5 28 5c 8f f6 bf
       0.31 -1.41
000480 7b 14 ae 47 e1 7a 06 c0 33 33 33 33 33 33 10 c0
       -2.81 -4.05
000490 52 b8 1e 85 eb 51 16 c0 ec 51 b8 1e 85 eb 1f c0
       -5.58 -7.98
0004a0 66 66 66 66 66 66 27 c0 48 e1 7a 14 ae c7 30 c0
       -11.7 -16.78
0004b0 71 3d 0a d7 a3 b0 36 c0 52 b8 1e 85 eb 51 3c c0
       -22.69 -28.32
0004c0 c3 f5 28 5c 8f 22 40 c0 ae 47 e1 7a 14 ae 40 c0
       -32.27 -33.36
0004d0 d7 a3 70 3d 0a 17 3f c0 ae 47 e1 7a 14 ee 39 c0
       -31.09 -25.93
0004e0 9a 99 99 99 99 19 33 c0 1f 85 eb 51 b8 1e 28 c0
       -19.1 -12.06
0004f0 f6 28 5c 8f c2 f5 17 c0 66 66 66 66 66 66 f6 bf
       -5.99 -1.4
000500 48 e1 7a 14 ae 47 fd 3f ae 47 e1 7a 14 ae 10 40
       1.83 4.17
000510 00 00 00 00 00 00 18 40 8f c2 f5 28 5c 8f 1d 40
       6.0 7.39
000520 5c 8f c2 f5 28 5c 20 40 cd cc cc cc cc 4c 20 40
       8.18 8.15
000530 3d 0a d7 a3 70 3d 1d 40 d7 a3 70 3d 0a d7 17 40
       7.31 5.96
000540 52 b8 1e 85 eb 51 12 40 a4 70 3d 0a d7 a3 0c 40
       4.58 3.58
000550 7b 14 ae 47 e1 7a 08 40 00 00 00 00 00 00 06 40
       3.06 2.75
000560 85 eb 51 b8 1e 85 01 40 c3 f5 28 5c 8f c2 ed 3f
       2.19 0.93
000570 85 eb 51 b8 1e 85 f3 bf 48 e1 7a 14 ae 47 10 c0
       -1.22 -4.07
000580 1f 85 eb 51 b8 1e 1d c0 ec 51 b8 1e 85 eb 24 c0
       -7.28 -10.46
000590 7b 14 ae 47 e1 fa 2a c0 0a d7 a3 70 3d 8a 30 c0
       -13.49 -16.54
0005a0 c3 f5 28 5c 8f 02 34 c0 66 66 66 66 66 66 38 c0
       -20.01 -24.4
0005b0 0a d7 a3 70 3d 0a 3e c0 9a 99 99 99 99 79 42 c0
       -30.04 -36.95
0005c0 5c 8f c2 f5 28 5c 46 c0 e1 7a 14 ae 47 41 4a c0
       -44.72 -52.51
0005d0 14 ae 47 e1 7a 94 4d c0 1f 85 eb 51 b8 be 4f c0
       -59.16 -63.49
0005e0 71 3d 0a d7 a3 30 50 c0 d7 a3 70 3d 0a 77 4f c0
       -64.76 -62.93
0005f0 8f c2 f5 28 5c 6f 4d c0 f6 28 5c 8f c2 15 4b c0
       -58.87 -54.17
000600 8f c2 f5 28 5c 4f 49 c0 52 b8 1e 85 eb d1 48 c0
       -50.62 -49.64
000610 48 e1 7a 14 ae e7 49 c0 c3 f5 28 5c 8f 62 4c c0
       -51.81 -56.77
000620 f6 28 5c 8f c2 b5 4f c0 e1 7a 14 ae 47 a1 51 c0
       -63.42 -70.52
000630 52 b8 1e 85 eb 41 53 c0 52 b8 1e 85 eb a1 54 c0
       -77.03 -82.53
000640 71 3d 0a d7 a3 c0 55 c0 8f c2 f5 28 5c af 56 c0
       -87.01 -90.74
000650 9a 99 99 99 99 79 57 c0 ae 47 e1 7a 14 1e 58 c0
       -93.9 -96.47
000660 14 ae 47 e1 7a 94 58 c0 ec 51 b8 1e 85 cb 58 c0
       -98.32 -99.18
000670 14 ae 47 e1 7a b4 58 c0 ec 51 b8 1e 85 3b 58 c0
       -98.82 -96.93
000680 71 3d 0a d7 a3 40 57 c0 5c 8f c2 f5 28 9c 55 c0
       -93.01 -86.44
000690 29 5c 8f c2 f5 28 53 c0 8f c2 f5 28 5c af 4f c0
       -76.64 -63.37
0006a0 5c 8f c2 f5 28 7c 47 c0 cd cc cc cc cc 8c 3c c0
       -46.97 -28.55
0006b0 f6 28 5c 8f c2 75 23 c0 cd cc cc cc cc cc 1e 40
       -9.73 7.7
0006c0 33 33 33 33 33 33 36 40 14 ae 47 e1 7a 74 40 40
       22.2 32.91
0006d0 9a 99 99 99 99 f9 43 40 7b 14 ae 47 e1 3a 46 40
       39.95 44.46
0006e0 48 e1 7a 14 ae 27 48 40 48 e1 7a 14 ae c7 4a 40
       48.31 53.56
0006f0 ae 47 e1 7a 14 ce 4e 40 9a 99 99 99 99 29 52 40
       61.61 72.65
000700 29 5c 8f c2 f5 58 55 40 f6 28 5c 8f c2 65 58 40
       85.39 97.59
000710 7b 14 ae 47 e1 ba 5a 40 5c 8f c2 f5 28 fc 5b 40
       106.92 111.94
000720 e1 7a 14 ae 47 21 5c 40 1f 85 eb 51 b8 6e 5b 40
       112.52 109.73
000730 52 b8 1e 85 eb 51 5a 40 b8 1e 85 eb 51 38 59 40
       105.28 100.88
000740 e1 7a 14 ae 47 71 58 40 52 b8 1e 85 eb 21 58 40
       97.77 96.53
000750 a4 70 3d 0a d7 43 58 40 71 3d 0a d7 a3 a0 58 40
       97.06 98.51
000760 52 b8 1e 85 eb e1 58 40 5c 8f c2 f5 28 ac 58 40
       99.53 98.69
000770 14 ae 47 e1 7a c4 57 40 29 5c 8f c2 f5 38 56 40
       95.07 88.89
000780 71 3d 0a d7 a3 60 54 40 8f c2 f5 28 5c bf 52 40
       81.51 74.99
000790 33 33 33 33 33 c3 51 40 cd cc cc cc cc 8c 51 40
       71.05 70.2
0007a0 66 66 66 66 66 d6 51 40 ec 51 b8 1e 85 0b 52 40
       71.35 72.18
0007b0 b8 1e 85 eb 51 88 51 40 b8 1e 85 eb 51 b8 4f 40
       70.13 63.44
0007c0 85 eb 51 b8 1e 05 4a 40 8f c2 f5 28 5c cf 42 40
       52.04 37.62
0007d0 a4 70 3d 0a d7 23 37 40 7b 14 ae 47 e1 fa 27 40
       23.14 11.99
0007e0 a4 70 3d 0a d7 a3 1b 40 c3 f5 28 5c 8f 42 22 40
       6.91 9.13
0007f0 0a d7 a3 70 3d ca 31 40 f6 28 5c 8f c2 35 3e 40
       17.79 30.21
