notebooks_SVD_vs_TSVD/bvpsGT_w10_s4_T1_35.npy (npy, 92288 bytes, 1 tensors)

array f8 [1, 11520]
000000 ec 51 b8 1e 85 eb 48 40 14 ae 47 e1 7a 14 47 40
       49.84 46.16
000010 f6 28 5c 8f c2 35 45 40 66 66 66 66 66 46 43 40
       42.42 38.55
000020 d7 a3 70 3d 0a 37 41 40 ae 47 e1 7a 14 ee 3d 40
       34.43 29.93
000030 00 00 00 00 00 00 39 40 7b 14 ae 47 e1 ba 33 40
       25.0 19.73
000040 00 00 00 00 00 80 2c 40 7b 14 ae 47 e1 7a 21 40
       14.25 8.74
000050 3d 0a d7 a3 70 3d 0a 40 a4 70 3d 0a d7 a3 00 c0
       3.28 -2.08
000060 71 3d 0a d7 a3 70 1d c0 a4 70 3d 0a d7 23 29 c0
       -7.36 -12.57
000070 0a d7 a3 70 3d ca 31 c0 66 66 66 66 66 26 37 c0
       -17.79 -23.15
000080 1f 85 eb 51 b8 de 3c c0 7b 14 ae 47 e1 9a 41 c0
       -28.87 -35.21
000090 a4 70 3d 0a d7 23 45 c0 0a d7 a3 70 3d ea 48 c0
       -42.28 -49.83
0000a0 8f c2 f5 28 5c 8f 4c c0 9a 99 99 99 99 79 4f c0
       -57.12 -62.95
0000b0 00 00 00 00 00 80 50 c0 cd cc cc cc cc 4c 50 c0
       -66.0 -65.2
0000c0 33 33 33 33 33 13 4e c0 85 eb 51 b8 1e a5 49 c0
       -60.15 -51.29
0000d0 ec 51 b8 1e 85 eb 43 c0 ae 47 e1 7a 14 6e 3b c0
       -39.84 -27.43
0000e0 66 66 66 66 66 66 2f c0 85 eb 51 b8 1e 85 17 c0
       -15.7 -5.88
0000f0 ec 51 b8 1e 85 eb f5 3f a4 70 3d 0a d7 a3 17 40
       1.37 5.91
000100 e1 7a 14 ae 47 e1 1f 40 d7 a3 70 3d 0a d7 1f 40
       7.97 7.96
000110 29 5c 8f c2 f5 28 19 40 1f 85 eb 51 b8 1e 0b 40
       6.29 3.39
000120 d7 a3 70 3d 0a d7 d3 bf 7b 14 ae 47 e1 7a 11 c0
       -0.31 -4.37
000130 8f c2 f5 28 5c 8f 20 c0 b8 1e 85 eb 51 38 27 c0
       -8.28 -11.61
000140 14 ae 47 e1 7a 14 2c c0 9a 99 99 99 99 19 2f c0
       -14.04 -15.55
000150 d7 a3 70 3d 0a 57 30 c0 66 66 66 66 66 e6 30 c0
       -16.34 -16.9
000160 85 eb 51 b8 1e c5 31 c0 52 b8 1e 85 eb 51 33 c0
       -17.77 -19.32
000170 d7 a3 70 3d 0a 97 35 c0 52 b8 1e 85 eb 51 38 c0
       -21.59 -24.32
000180 c3 f5 28 5c 8f 02 3b c0 66 66 66 66 66 26 3d c0
       -27.01 -29.15
000190 0a d7 a3 70 3d 8a 3e c0 52 b8 1e 85 eb 51 3f c0
       -30.54 -31.32
0001a0 a4 70 3d 0a d7 e3 3f c0 c3 f5 28 5c 8f 62 40 c0
       -31.89 -32.77
0001b0 e1 7a 14 ae 47 21 41 c0 ae 47 e1 7a 14 2e 42 c0
       -34.26 -36.36
0001c0 00 00 00 00 00 60 43 c0 5c 8f c2 f5 28 7c 44 c0
       -38.75 -40.97
0001d0 ec 51 b8 1e 85 4b 45 c0 7b 14 ae 47 e1 ba 45 c0
       -42.59 -43.46
0001e0 7b 14 ae 47 e1 da 45 c0 1f 85 eb 51 b8 de 45 c0
       -43.71 -43.74
0001f0 8f c2 f5 28 5c 0f 46 c0 ae 47 e1 7a 14 ae 46 c0
       -44.12 -45.36
000200 66 66 66 66 66 e6 47 c0 ae 47 e1 7a 14 ae 49 c0
       -47.8 -51.36
000210 00 00 00 00 00 c0 4b c0 71 3d 0a d7 a3 90 4d c0
       -55.5 -59.13
000220 7b 14 ae 47 e1 7a 4e c0 7b 14 ae 47 e1 da 4d c0
       -60.96 -59.71
000230 ae 47 e1 7a 14 4e 4b c0 ae 47 e1 7a 14 ce 46 c0
       -54.61 -45.61
000240 9a 99 99 99 99 b9 40 c0 7b 14 ae 47 e1 7a 33 c0
       -33.45 -19.48
000250 f6 28 5c 8f c2 f5 14 c0 71 3d 0a d7 a3 70 1f 40
       -5.24 7.86
000260 1f 85 eb 51 b8 de 32 40 14 ae 47 e1 7a 54 3b 40
       18.87 27.33
000270 9a 99 99 99 99 99 40 40 7b 14 ae 47 e1 5a 42 40
       33.2 36.71
000280 1f 85 eb 51 b8 1e 43 40 00 00 00 00 00 20 43 40
       38.24 38.25
000290 a4 70 3d 0a d7 a3 42 40 d7 a3 70 3d 0a f7 41 40
       37.28 35.93
0002a0 c3 f5 28 5c 8f 62 41 40 a4 70 3d 0a d7 23 41 40
       34.77 34.28
0002b0 d7 a3 70 3d 0a 57 41 40 3d 0a d7 a3 70 fd 41 40
       34.68 35.98
0002c0 9a 99 99 99 99 f9 42 40 c3 f5 28 5c 8f 22 44 40
       37.95 40.27
0002d0 33 33 33 33 33 53 45 40 8f c2 f5 28 5c 6f 46 40
       42.65 44.87
0002e0 a4 70 3d 0a d7 63 47 40 7b 14 ae 47 e1 1a 48 40
       46.78 48.21
0002f0 7b 14 ae 47 e1 7a 48 40 5c 8f c2 f5 28 5c 48 40
       48.96 48.72
000300 29 5c 8f c2 f5 a8 47 40 9a 99 99 99 99 59 46 40
       47.32 44.7
000310 00 00 00 00 00 80 44 40 66 66 66 66 66 46 42 40
       41.0 36.55
000320 33 33 33 33 33 b3 3f 40 0a d7 a3 70 3d ca 3a 40
       31.7 26.79
000330 cd cc cc cc cc 0c 36 40 9a 99 99 99 99 99 31 40
       22.05 17.6
000340 66 66 66 66 66 e6 2a 40 7b 14 ae 47 e1 fa 22 40
       13.45 9.49
000350 ae 47 e1 7a 14 ae 15 40 33 33 33 33 33 33 eb 3f
       5.42 0.85
000360 3d 0a d7 a3 70 3d 12 c0 0a d7 a3 70 3d 8a 25 c0
       -4.56 -10.77
000370 a4 70 3d 0a d7 23 31 c0 b8 1e 85 eb 51 78 36 c0
       -17.14 -22.47
000380 3d 0a d7 a3 70 3d 39 c0 c3 f5 28 5c 8f 42 38 c0
       -25.24 -24.26
000390 cd cc cc cc cc 0c 33 c0 52 b8 1e 85 eb 51 24 c0
       -19.05 -10.16
0003a0 7b 14 ae 47 e1 7a f0 3f 1f 85 eb 51 b8 9e 29 40
       1.03 12.81
0003b0 1f 85 eb 51 b8 9e 37 40 3d 0a d7 a3 70 3d 40 40
       23.62 32.48
0003c0 e1 7a 14 ae 47 81 43 40 e1 7a 14 ae 47 a1 45 40
       39.01 43.26
0003d0 3d 0a d7 a3 70 bd 46 40 cd cc cc cc cc ec 46 40
       45.48 45.85
0003e0 66 66 66 66 66 46 46 40 29 5c 8f c2 f5 e8 44 40
       44.55 41.82
0003f0 c3 f5 28 5c 8f 02 43 40 f6 28 5c 8f c2 d5 40 40
       38.02 33.67
000400 48 e1 7a 14 ae 47 3d 40 8f c2 f5 28 5c 4f 39 40
       29.28 25.31
000410 f6 28 5c 8f c2 f5 35 40 c3 f5 28 5c 8f 42 33 40
       21.96 19.26
000420 8f c2 f5 28 5c 0f 31 40 d7 a3 70 3d 0a 57 2e 40
       17.06 15.17
000430 ec 51 b8 1e 85 eb 2a 40 c3 f5 28 5c 8f c2 27 40
       13.46 11.88
000440 f6 28 5c 8f c2 f5 24 40 00 00 00 00 00 80 22 40
       10.48 9.25
000450 ae 47 e1 7a 14 2e 20 40 cd cc cc cc cc cc 1a 40
       8.09 6.7
000460 c3 f5 28 5c 8f c2 12 40 3d 0a d7 a3 70 3d fa 3f
       4.69 1.64
000470 71 3d 0a d7 a3 70 05 c0 66 66 66 66 66 66 20 c0
       -2.68 -8.2
000480 a4 70 3d 0a d7 23 2d c0 85 eb 51 b8 1e 45 35 c0
       -14.57 -21.27
000490 00 00 00 00 00 c0 3b c0 f6 28 5c 8f c2 d5 40 c0
       -27.75 -33.67
0004a0 3d 0a d7 a3 70 7d 43 c0 8f c2 f5 28 5c ef 45 c0
       -38.98 -43.87
0004b0 a4 70 3d 0a d7 63 48 c0 3d 0a d7 a3 70 1d 4b c0
       -48.78 -54.23
0004c0 b8 1e 85 eb 51 58 4e c0 b8 1e 85 eb 51 18 51 c0
       -60.69 -68.38
0004d0 33 33 33 33 33 43 53 c0 a4 70 3d 0a d7 73 55 c0
       -77.05 -85.81
0004e0 71 3d 0a d7 a3 50 57 c0 3d 0a d7 a3 70 6d 58 c0
       -93.26 -97.71
0004f0 e1 7a 14 ae 47 71 58 c0 cd cc cc cc cc 2c 57 c0
       -97.77 -92.7
000500 48 e1 7a 14 ae b7 54 c0 c3 f5 28 5c 8f 62 51 c0
       -82.87 -69.54
000510 52 b8 1e 85 eb 51 4b c0 8f c2 f5 28 5c 0f 44 c0
       -54.64 -40.12
000520 b8 1e 85 eb 51 78 3b c0 e1 7a 14 ae 47 61 31 c0
       -27.47 -17.38
000530 29 5c 8f c2 f5 a8 23 c0 00 00 00 00 00 00 11 c0
       -9.83 -4.25
000540 b8 1e 85 eb 51 b8 9e 3f 66 66 66 66 66 66 0c 40
       0.03 3.55
000550 66 66 66 66 66 66 1a 40 f6 28 5c 8f c2 75 22 40
       6.6 9.23
000560 ec 51 b8 1e 85 eb 26 40 c3 f5 28 5c 8f c2 2a 40
       11.46 13.38
000570 d7 a3 70 3d 0a 57 2e 40 0a d7 a3 70 3d 0a 31 40
       15.17 17.04
000580 cd cc cc cc cc 0c 33 40 52 b8 1e 85 eb 11 35 40
       19.05 21.07
000590 00 00 00 00 00 c0 36 40 c3 f5 28 5c 8f c2 37 40
       22.75 23.76
0005a0 71 3d 0a d7 a3 f0 37 40 f6 28 5c 8f c2 75 37 40
       23.94 23.46
0005b0 b8 1e 85 eb 51 b8 36 40 00 00 00 00 00 40 36 40
       22.72 22.25
0005c0 e1 7a 14 ae 47 61 36 40 9a 99 99 99 99 19 37 40
       22.38 23.1
0005d0 0a d7 a3 70 3d 0a 38 40 9a 99 99 99 99 99 38 40
       24.04 24.6
0005e0 3d 0a d7 a3 70 3d 38 40 ec 51 b8 1e 85 ab 36 40
       24.24 22.67
0005f0 33 33 33 33 33 f3 33 40 7b 14 ae 47 e1 7a 30 40
       19.95 16.48
000600 f6 28 5c 8f c2 75 29 40 a4 70 3d 0a d7 23 22 40
       12.73 9.07
000610 85 eb 51 b8 1e 85 16 40 7b 14 ae 47 e1 7a 02 40
       5.63 2.31
000620 ae 47 e1 7a 14 ae f3 bf 8f c2 f5 28 5c 8f 15 c0
       -1.23 -5.39
000630 9a 99 99 99 99 19 25 c0 b8 1e 85 eb 51 f8 30 c0
       -10.55 -16.97
000640 ae 47 e1 7a 14 ae 38 c0 8f c2 f5 28 5c af 40 c0
       -24.68 -33.37
000650 e1 7a 14 ae 47 21 45 c0 f6 28 5c 8f c2 15 49 c0
       -42.26 -50.17
000660 29 5c 8f c2 f5 c8 4b c0 e1 7a 14 ae 47 81 4c c0
       -55.57 -57.01
000670 1f 85 eb 51 b8 be 4a c0 66 66 66 66 66 66 46 c0
       -53.49 -44.8
000680 a4 70 3d 0a d7 a3 3f c0 0a d7 a3 70 3d 0a 2f c0
       -31.64 -15.52
000690 8f c2 f5 28 5c 8f fa 3f 9a 99 99 99 99 19 32 40
       1.66 18.1
0006a0 00 00 00 00 00 40 40 40 1f 85 eb 51 b8 1e 46 40
       32.5 44.24
0006b0 29 5c 8f c2 f5 a8 4a 40 29 5c 8f c2 f5 08 4e 40
       53.32 60.07
0006c0 48 e1 7a 14 ae 37 50 40 3d 0a d7 a3 70 fd 50 40
       64.87 67.96
0006d0 71 3d 0a d7 a3 60 51 40 ec 51 b8 1e 85 6b 51 40
       69.51 69.68
0006e0 52 b8 1e 85 eb 31 51 40 ae 47 e1 7a 14 ce 50 40
       68.78 67.22
0006f0 9a 99 99 99 99 59 50 40 cd cc cc cc cc cc 4f 40
       65.4 63.6
000700 8f c2 f5 28 5c ef 4e 40 33 33 33 33 33 13 4e 40
       61.87 60.15
000710 cd cc cc cc cc 2c 4d 40 e1 7a 14 ae 47 41 4c 40
       58.35 56.51
000720 e1 7a 14 ae 47 61 4b 40 b8 1e 85 eb 51 98 4a 40
       54.76 53.19
000730 1f 85 eb 51 b8 de 49 40 f6 28 5c 8f c2 15 49 40
       51.74 50.17
000740 33 33 33 33 33 13 48 40 14 ae 47 e1 7a b4 46 40
       48.15 45.41
000750 f6 28 5c 8f c2 f5 44 40 ec 51 b8 1e 85 eb 42 40
       41.92 37.84
000760 7b 14 ae 47 e1 ba 40 40 b8 1e 85 eb 51 f8 3c 40
       33.46 28.97
000770 29 5c 8f c2 f5 68 38 40 d7 a3 70 3d 0a 97 33 40
       24.41 19.59
000780 9a 99 99 99 99 99 2c 40 ae 47 e1 7a 14 ae 20 40
       14.3 8.34
000790 e1 7a 14 ae 47 e1 fa 3f 5c 8f c2 f5 28 5c 16 c0
       1.68 -5.59
0007a0 85 eb 51 b8 1e 85 2a c0 8f c2 f5 28 5c 0f 35 c0
       -13.26 -21.06
0007b0 71 3d 0a d7 a3 b0 3c c0 8f c2 f5 28 5c ef 41 c0
       -28.69 -35.87
0007c0 14 ae 47 e1 7a 34 45 c0 ec 51 b8 1e 85 2b 48 c0
       -42.41 -48.34
0007d0 b8 1e 85 eb 51 f8 4a c0 cd cc cc cc cc ec 4d c0
       -53.94 -59.85
0007e0 ae 47 e1 7a 14 ae 50 c0 0a d7 a3 70 3d ba 52 c0
       -66.72 -74.91
0007f0 66 66 66 66 66 06 55 c0 ec 51 b8 1e 85 4b 57 c0
       -84.1 -93.18
