notebooks_SVD_vs_TSVD/bvpsGT_w10_s5_T3_35.npy (npy, 92288 bytes, 1 tensors)

array f8 [1, 11520]
000000 00 00 00 00 00 20 45 40 8f c2 f5 28 5c 0f 49 40
       42.25 50.12
000010 9a 99 99 99 99 99 4c 40 33 33 33 33 33 b3 4f 40
       57.2 63.4
000020 5c 8f c2 f5 28 2c 51 40 a4 70 3d 0a d7 43 52 40
       68.69 73.06
000030 e1 7a 14 ae 47 21 53 40 33 33 33 33 33 c3 53 40
       76.52 79.05
000040 b8 1e 85 eb 51 28 54 40 00 00 00 00 00 50 54 40
       80.63 81.25
000050 71 3d 0a d7 a3 40 54 40 52 b8 1e 85 eb 01 54 40
       81.01 80.03
000060 33 33 33 33 33 a3 53 40 a4 70 3d 0a d7 33 53 40
       78.55 76.81
000070 5c 8f c2 f5 28 bc 52 40 ec 51 b8 1e 85 3b 52 40
       74.94 72.93
000080 29 5c 8f c2 f5 a8 51 40 d7 a3 70 3d 0a f7 50 40
       70.64 67.86
000090 7b 14 ae 47 e1 1a 50 40 5c 8f c2 f5 28 1c 4e 40
       64.42 60.22
0000a0 7b 14 ae 47 e1 9a 4b 40 8f c2 f5 28 5c af 48 40
       55.21 49.37
0000b0 9a 99 99 99 99 59 45 40 c3 f5 28 5c 8f a2 41 40
       42.7 35.27
0000c0 52 b8 1e 85 eb 51 3b 40 48 e1 7a 14 ae 47 33 40
       27.32 19.28
0000d0 0a d7 a3 70 3d 8a 27 40 ec 51 b8 1e 85 eb 15 40
       11.77 5.48
0000e0 66 66 66 66 66 66 ee 3f ec 51 b8 1e 85 eb f9 bf
       0.95 -1.62
0000f0 9a 99 99 99 99 99 03 c0 e1 7a 14 ae 47 e1 00 c0
       -2.45 -2.11
000100 b8 1e 85 eb 51 b8 f6 bf 7b 14 ae 47 e1 7a f0 bf
       -1.42 -1.03
000110 cd cc cc cc cc cc f4 bf 1f 85 eb 51 b8 1e 01 c0
       -1.3 -2.14
000120 48 e1 7a 14 ae 47 09 c0 33 33 33 33 33 33 0f c0
       -3.16 -3.9
000130 71 3d 0a d7 a3 70 10 c0 e1 7a 14 ae 47 e1 0e c0
       -4.11 -3.86
000140 29 5c 8f c2 f5 28 0c c0 00 00 00 00 00 00 0c c0
       -3.52 -3.5
000150 0a d7 a3 70 3d 0a 10 c0 0a d7 a3 70 3d 0a 14 c0
       -4.01 -5.01
000160 e1 7a 14 ae 47 e1 18 c0 48 e1 7a 14 ae 47 1d c0
       -6.22 -7.32
000170 cd cc cc cc cc 4c 20 c0 85 eb 51 b8 1e 85 21 c0
       -8.15 -8.76
000180 29 5c 8f c2 f5 a8 22 c0 00 00 00 00 00 00 24 c0
       -9.33 -10.0
000190 8f c2 f5 28 5c 8f 25 c0 71 3d 0a d7 a3 f0 26 c0
       -10.78 -11.47
0001a0 ae 47 e1 7a 14 ae 27 c0 a4 70 3d 0a d7 a3 27 c0
       -11.84 -11.82
0001b0 8f c2 f5 28 5c 0f 27 c0 33 33 33 33 33 b3 26 c0
       -11.53 -11.35
0001c0 52 b8 1e 85 eb 51 27 c0 48 e1 7a 14 ae 47 29 c0
       -11.66 -12.64
0001d0 d7 a3 70 3d 0a 57 2c c0 33 33 33 33 33 b3 2f c0
       -14.17 -15.85
0001e0 33 33 33 33 33 33 31 c0 33 33 33 33 33 f3 31 c0
       -17.2 -17.95
0001f0 9a 99 99 99 99 19 32 c0 1f 85 eb 51 b8 de 31 c0
       -18.1 -17.87
000200 52 b8 1e 85 eb 91 31 c0 e1 7a 14 ae 47 61 31 c0
       -17.57 -17.38
000210 d7 a3 70 3d 0a 57 31 c0 52 b8 1e 85 eb 51 31 c0
       -17.34 -17.32
000220 00 00 00 00 00 40 31 c0 ec 51 b8 1e 85 2b 31 c0
       -17.25 -17.17
000230 ae 47 e1 7a 14 2e 31 c0 33 33 33 33 33 73 31 c0
       -17.18 -17.45
000240 14 ae 47 e1 7a 14 32 c0 8f c2 f5 28 5c 0f 33 c0
       -18.08 -19.06
000250 d7 a3 70 3d 0a 57 34 c0 c3 f5 28 5c 8f c2 35 c0
       -20.34 -21.76
000260 8f c2 f5 28 5c 0f 37 c0 ae 47 e1 7a 14 ee 37 c0
       -23.06 -23.93
000270 b8 1e 85 eb 51 f8 37 c0 52 b8 1e 85 eb d1 36 c0
       -23.97 -22.82
000280 8f c2 f5 28 5c 4f 34 c0 c3 f5 28 5c 8f 82 30 c0
       -20.31 -16.51
000290 c3 f5 28 5c 8f c2 27 c0 29 5c 8f c2 f5 28 1c c0
       -11.88 -7.04
0002a0 48 e1 7a 14 ae 47 05 c0 d7 a3 70 3d 0a d7 eb 3f
       -2.66 0.87
0002b0 d7 a3 70 3d 0a d7 0b 40 a4 70 3d 0a d7 a3 15 40
       3.48 5.41
0002c0 3d 0a d7 a3 70 3d 1c 40 5c 8f c2 f5 28 5c 21 40
       7.06 8.68
0002d0 29 5c 8f c2 f5 a8 24 40 ae 47 e1 7a 14 ae 27 40
       10.33 11.84
0002e0 48 e1 7a 14 ae c7 29 40 8f c2 f5 28 5c 8f 2a 40
       12.89 13.28
0002f0 5c 8f c2 f5 28 dc 29 40 ec 51 b8 1e 85 eb 27 40
       12.93 11.96
000300 c3 f5 28 5c 8f 42 25 40 ec 51 b8 1e 85 6b 22 40
       10.63 9.21
000310 a4 70 3d 0a d7 a3 1f 40 48 e1 7a 14 ae 47 1b 40
       7.91 6.82
000320 a4 70 3d 0a d7 a3 17 40 71 3d 0a d7 a3 70 14 40
       5.91 5.11
000330 33 33 33 33 33 33 11 40 29 5c 8f c2 f5 28 0c 40
       4.3 3.52
000340 e1 7a 14 ae 47 e1 06 40 c3 f5 28 5c 8f c2 03 40
       2.86 2.47
000350 14 ae 47 e1 7a 14 04 40 9a 99 99 99 99 99 07 40
       2.51 2.95
000360 f6 28 5c 8f c2 f5 0c 40 33 33 33 33 33 33 11 40
       3.62 4.3
000370 33 33 33 33 33 33 13 40 5c 8f c2 f5 28 5c 14 40
       4.8 5.09
000380 1f 85 eb 51 b8 1e 15 40 ec 51 b8 1e 85 eb 15 40
       5.28 5.48
000390 e1 7a 14 ae 47 e1 16 40 7b 14 ae 47 e1 7a 17 40
       5.72 5.87
0003a0 e1 7a 14 ae 47 e1 16 40 52 b8 1e 85 eb 51 14 40
       5.72 5.08
0003b0 85 eb 51 b8 1e 85 0f 40 d7 a3 70 3d 0a d7 03 40
       3.94 2.48
0003c0 7b 14 ae 47 e1 7a f0 3f b8 1e 85 eb 51 b8 ae bf
       1.03 -0.06
0003d0 9a 99 99 99 99 99 e1 bf f6 28 5c 8f c2 f5 d8 bf
       -0.55 -0.39
0003e0 0a d7 a3 70 3d 0a c7 3f a4 70 3d 0a d7 a3 e8 3f
       0.18 0.77
0003f0 14 ae 47 e1 7a 14 ee 3f c3 f5 28 5c 8f c2 d5 3f
       0.94 0.34
000400 8f c2 f5 28 5c 8f f2 bf 1f 85 eb 51 b8 1e 0b c0
       -1.16 -3.39
000410 85 eb 51 b8 1e 85 17 c0 85 eb 51 b8 1e 05 20 c0
       -5.88 -8.01
000420 cd cc cc cc cc 4c 22 c0 c3 f5 28 5c 8f c2 21 c0
       -9.15 -8.88
000430 b8 1e 85 eb 51 b8 1c c0 7b 14 ae 47 e1 7a 11 c0
       -7.18 -4.37
000440 a4 70 3d 0a d7 a3 f0 bf 0a d7 a3 70 3d 0a 01 40
       -1.04 2.13
000450 8f c2 f5 28 5c 8f 12 40 29 5c 8f c2 f5 28 19 40
       4.64 6.29
000460 cd cc cc cc cc cc 1c 40 a4 70 3d 0a d7 a3 1e 40
       7.2 7.66
000470 ec 51 b8 1e 85 eb 1f 40 d7 a3 70 3d 0a d7 20 40
       7.98 8.42
000480 14 ae 47 e1 7a 14 22 40 ae 47 e1 7a 14 ae 23 40
       9.04 9.84
000490 00 00 00 00 00 80 25 40 ec 51 b8 1e 85 6b 27 40
       10.75 11.71
0004a0 52 b8 1e 85 eb 51 29 40 0a d7 a3 70 3d 0a 2b 40
       12.66 13.52
0004b0 48 e1 7a 14 ae 47 2c 40 3d 0a d7 a3 70 bd 2c 40
       14.14 14.37
0004c0 14 ae 47 e1 7a 14 2c 40 c3 f5 28 5c 8f 42 2a 40
       14.04 13.13
0004d0 8f c2 f5 28 5c 8f 27 40 0a d7 a3 70 3d 8a 24 40
       11.78 10.27
0004e0 71 3d 0a d7 a3 f0 21 40 66 66 66 66 66 66 20 40
       8.97 8.2
0004f0 9a 99 99 99 99 19 20 40 33 33 33 33 33 b3 20 40
       8.05 8.35
000500 00 00 00 00 00 80 21 40 9a 99 99 99 99 99 21 40
       8.75 8.8
000510 71 3d 0a d7 a3 70 20 40 00 00 00 00 00 00 1c 40
       8.22 7.0
000520 52 b8 1e 85 eb 51 15 40 52 b8 1e 85 eb 51 0c 40
       5.33 3.54
000530 5c 8f c2 f5 28 5c ff 3f 0a d7 a3 70 3d 0a e7 3f
       1.96 0.72
000540 e1 7a 14 ae 47 e1 ca bf 71 3d 0a d7 a3 70 ed bf
       -0.21 -0.92
000550 a4 70 3d 0a d7 a3 f8 bf 5c 8f c2 f5 28 5c 01 c0
       -1.54 -2.17
000560 66 66 66 66 66 66 06 c0 ae 47 e1 7a 14 ae 0b c0
       -2.8 -3.46
000570 d7 a3 70 3d 0a d7 10 c0 ae 47 e1 7a 14 ae 14 c0
       -4.21 -5.17
000580 cd cc cc cc cc cc 19 c0 a4 70 3d 0a d7 23 20 c0
       -6.45 -8.07
000590 cd cc cc cc cc cc 23 c0 e1 7a 14 ae 47 61 27 c0
       -9.9 -11.69
0005a0 c3 f5 28 5c 8f 42 2a c0 66 66 66 66 66 e6 2b c0
       -13.13 -13.95
0005b0 f6 28 5c 8f c2 f5 2b c0 7b 14 ae 47 e1 7a 2a c0
       -13.98 -13.24
0005c0 cd cc cc cc cc cc 27 c0 66 66 66 66 66 66 24 c0
       -11.9 -10.2
0005d0 c3 f5 28 5c 8f c2 20 c0 8f c2 f5 28 5c 8f 1a c0
       -8.38 -6.64
0005e0 85 eb 51 b8 1e 85 14 c0 71 3d 0a d7 a3 70 0f c0
       -5.13 -3.93
0005f0 7b 14 ae 47 e1 7a 08 c0 ae 47 e1 7a 14 ae 03 c0
       -3.06 -2.46
000600 52 b8 1e 85 eb 51 00 c0 66 66 66 66 66 66 fa bf
       -2.04 -1.65
000610 85 eb 51 b8 1e 85 f3 bf ae 47 e1 7a 14 ae e7 bf
       -1.22 -0.74
000620 ec 51 b8 1e 85 eb d1 bf 7b 14 ae 47 e1 7a a4 3f
       -0.28 0.04
000630 a4 70 3d 0a d7 a3 c0 3f 00 00 00 00 00 00 00 00
       0.13 0.0
000640 ec 51 b8 1e 85 eb d1 bf 85 eb 51 b8 1e 85 e3 bf
       -0.28 -0.61
000650 1f 85 eb 51 b8 1e ed bf 0a d7 a3 70 3d 0a f3 bf
       -0.91 -1.19
000660 29 5c 8f c2 f5 28 f8 bf b8 1e 85 eb 51 b8 fe bf
       -1.51 -1.92
000670 33 33 33 33 33 33 03 c0 48 e1 7a 14 ae 47 07 c0
       -2.4 -2.91
000680 1f 85 eb 51 b8 1e 0b c0 0a d7 a3 70 3d 0a 0f c0
       -3.39 -3.88
000690 f6 28 5c 8f c2 f5 11 c0 9a 99 99 99 99 99 15 c0
       -4.49 -5.4
0006a0 c3 f5 28 5c 8f c2 1a c0 a4 70 3d 0a d7 a3 20 c0
       -6.69 -8.32
0006b0 1f 85 eb 51 b8 1e 24 c0 66 66 66 66 66 66 27 c0
       -10.06 -11.7
0006c0 33 33 33 33 33 33 2a c0 00 00 00 00 00 80 2c c0
       -13.1 -14.25
0006d0 0a d7 a3 70 3d 8a 2e c0 00 00 00 00 00 40 30 c0
       -15.27 -16.25
0006e0 7b 14 ae 47 e1 3a 31 c0 71 3d 0a d7 a3 30 32 c0
       -17.23 -18.19
0006f0 33 33 33 33 33 33 33 c0 29 5c 8f c2 f5 68 34 c0
       -19.2 -20.41
000700 7b 14 ae 47 e1 fa 35 c0 71 3d 0a d7 a3 f0 37 c0
       -21.98 -23.94
000710 d7 a3 70 3d 0a 17 3a c0 ae 47 e1 7a 14 ee 3b c0
       -26.09 -27.93
000720 a4 70 3d 0a d7 e3 3c c0 29 5c 8f c2 f5 68 3c c0
       -28.89 -28.41
000730 ec 51 b8 1e 85 2b 3a c0 cd cc cc cc cc 0c 36 c0
       -26.17 -22.05
000740 cd cc cc cc cc 0c 30 c0 f6 28 5c 8f c2 75 20 c0
       -16.05 -8.23
000750 52 b8 1e 85 eb 51 f4 3f b8 1e 85 eb 51 38 28 40
       1.27 12.11
000760 ae 47 e1 7a 14 ae 37 40 71 3d 0a d7 a3 90 41 40
       23.68 35.13
000770 ec 51 b8 1e 85 cb 46 40 33 33 33 33 33 33 4b 40
       45.59 54.4
000780 cd cc cc cc cc ac 4e 40 5c 8f c2 f5 28 ac 50 40
       61.35 66.69
000790 7b 14 ae 47 e1 ba 51 40 33 33 33 33 33 a3 52 40
       70.92 74.55
0007a0 d7 a3 70 3d 0a 77 53 40 9a 99 99 99 99 29 54 40
       77.86 80.65
0007b0 29 5c 8f c2 f5 98 54 40 0a d7 a3 70 3d 9a 54 40
       82.39 82.41
0007c0 cd cc cc cc cc 0c 54 40 ae 47 e1 7a 14 ee 52 40
       80.2 75.72
0007d0 66 66 66 66 66 56 51 40 66 66 66 66 66 e6 4e 40
       69.35 61.8
0007e0 66 66 66 66 66 e6 4a 40 ae 47 e1 7a 14 ee 46 40
       53.8 45.86
0007f0 e1 7a 14 ae 47 21 43 40 52 b8 1e 85 eb 11 3f 40
       38.26 31.07
